model_coeffs/quantizer.tflite (tflite, 518396 bytes, 137 tensors)

transpose f4 [16, 64]
00000000: a756 543f d9ca cebe 68eb febe 235c 9c3e
00000010: 61e3 223e 7ceb 0bbe 024d 2bbc 55d9 123e
00000020: 3da5 03bf 1068 8abe a78e d5be dbbb 3a3f
00000030: 9c52 0a3d ded1 f33e 1373 5cbf 8f61 3a3e
00000040: ff4c d6c1 2753 1b3f 7a50 523f 0a7b 4fbf
00000050: 4be3 973e 371f bf40 a185 66c0 a559 d03e
00000060: 4251 14bf 0515 2abf 9e4b adbe c53e b33e
00000070: abe0 17bf edf3 a0bf bbcc b73e 77c1 e43c
00000080: 4588 1641 0347 7ec1 2e12 b1bf f429 1f40
00000090: e788 443f 5e99 aa3f 66b4 4c3f 3a38 f4bf
000000a0: 8d9e 9b3f b8a4 1040 ffcf 77c0 b111 84bf
000000b0: 8f93 623f 780a cd3f b1d9 9bbf 5eab f940
000000c0: 49f2 5c3f 2bbe 4a3f e448 4bbd 21a0 3b3e
000000d0: 5545 52bf bcff 1640 24e4 183f 8a1f 9ebd
000000e0: cd8f b6bf de59 063f 96d7 0940 cae1 0640
000000f0: db2f aabf cfe0 2840 d936 96be e186 b4c0
00000100: 4ded 8040 b64e bdbe 75ed eebf 12d2 d93f
00000110: 7a90 0140 2a85 313e 5548 58bf 0dce 57bf
00000120: 3289 57bf 4e3c 663f 17cf d0bf be5d 0fbf
00000130: c26b c5bf d4c6 333f eff6 323f 906d 283d
00000140: a9d0 15c2 6502 7dbf 57d5 23c0 e887 dc3f
00000150: 59e5 b9be 46b4 6f41 3dc6 6a40 bf4e 463f
00000160: 2db1 0f40 6649 7c3f 8962 e13f 3d91 243f
00000170: 101a 0b40 6769 da3f e7c1 8d3e d4a2 5e40
00000180: a64a 4841 2999 26c1 aee9 04c0 b30c 1340
00000190: e6f1 8f3f 6ed0 be3f ed20 8bbe 5cea 98bf
000001a0: c5bf c93f f227 ec3e 6fa0 2cc0 804d bd3f
000001b0: 427b 4540 c4f3 6f3e d41f 8b3f d5f6 0241
000001c0: 8dc9 d73f 0ffa fc3f 18d7 8140 15c9 c03f
000001d0: f9ef 43c0 5ad5 7e40 7f91 6abf 3d6f d03f
000001e0: 577a 13c0 22c3 4d3f e2d0 6040 f539 5b40
000001f0: 2b27 88bf 5b96 3540 9747 80bf 592b 89c0
00000200: a5ff b03e b9ae 9abe e686 94be f034 ce3d
00000210: 0661 da3d 15c3 bdbd 0169 b2bd 65e0 c63d
00000220: 5522 8abe 7be1 82be b837 7ebe 3db7 c43e
00000230: fb15 f13c a721 353e cd20 34bf d0c2 803e
00000240: 1321 84c1 a113 143f 64f6 883e 1494 c4be
00000250: e4d6 823d 47f0 06c0 339b 6cc0 5eef 003f
00000260: 11f9 883e 3519 5bbe 4548 53bf 6530 123f
00000270: 7913 44bf acb4 cdbf e827 13bb 870d 953e
00000280: aca2 0e41 dbee a2c1 a1c8 ad3f 8fc3 0840
00000290: 4dd0 0d3f 296b c63f 7e11 8a3e 40f9 86c0
000002a0: 281a 8b40 10b8 3640 a2ff d5c0 9199 1bc0
000002b0: 3910 a8bf a4e1 c33f c345 1dc0 9c89 a940
000002c0: 802e 593f 7bfd 01bf b4d6 7c3e 1a90 81be
000002d0: dea4 b9bf f03e cc3f 6730 823f 96d9 52bf
000002e0: 7283 02c0 a5c3 2f3f 150e 383f a3cb 563f
000002f0: 567b b9bf 834b 1d40 3d13 a7be 237b e6c0
00000300: 2cb5 5abe 1693 86bd dbf1 093e 9a99 82bd
00000310: bfa5 11be 6a33 a73d 3001 b43d b034 aabe
00000320: f669 d43c 2b61 0fbc 60e4 f2bd c544 c5be
00000330: cc33 543d 33e2 183d 4b23 343e efe3 163f
00000340: ad22 8dc0 1f5b a73f 0964 aa3e d597 073f
00000350: 7e54 8dbf 67b9 40c1 596a 013e 53c6 9b3e
00000360: aeb4 613e 5804 333f 551c dfbf cd73 2cbe
00000370: 245c 11bf 4366 41bf ea36 d43e b7c9 2140
00000380: cc31 6ebf 631c a9c0 19df 333f 1a83 7dbf
00000390: 7fd0 03be 03ef 34bf 0ff4 87be 4c30 8b3f
000003a0: efd2 bb3f 5c94 20c0 79d6 6d40 5e89 f8bd
000003b0: e6be e140 fbae 8b3f d22f 79c0 a3a6 1e40
000003c0: 26e5 e23f 0272 463f 7f3d 95c0 0bbb 6bbe
000003d0: 3424 6640 c567 77c0 735e 86bf 85ba 0ebf
000003e0: a95d f1bf 830e 663f 3ab5 1c3e caf4 ec3f
000003f0: ccdb f1be 6219 b9be e43f 4dbf 8e7f 55c0
0.8294472 -0.40389135 -0.49788976 0.30539045 0.1590705 -0.13664049 -0.010455372 0.14340718
-0.5142401 -0.27032518 -0.41710398 0.72942895 0.03377019 0.47621053 -0.8611309 0.18201278
-26.787596 0.60673755 0.8215405 -0.8104712 0.29665598 5.9725604 -3.601906 0.40693393
-0.5793649 -0.66438323 -0.33846754 0.35008827 -0.5932719 -1.257444 0.35898384 0.027924282
9.408269 -15.892337 -1.3833673 2.4869356 0.76771396 1.3328054 0.79962766 -1.9079659
1.2157761 2.2600536 -3.87207 -1.0317899 0.88506407 1.601882 -1.2175809 7.802169
0.863072 0.79196423 -0.04963006 0.18322803 -0.8213704 2.3593588 0.59723115 -0.07720859
-1.4262635 0.52480876 2.1537833 2.107531 -1.3295854 2.6387212 -0.2933872 -5.6414647
4.0289674 -0.36974114 -1.8666216 1.7017233 2.0244431 0.17335954 -0.8448537 -0.84298784
-0.8419372 0.8993577 -1.6313199 -0.56002414 -1.542351 0.7022526 0.6990804 0.041120112
-37.45377 -0.9883178 -2.5598962 1.7228975 -0.3630779 14.981512 3.6683495 0.77463907
2.245189 0.985495 1.7608196 0.64284116 2.1734657 1.7063416 0.27686998 3.4786882
12.518225 -10.412393 -2.0767627 2.29765 1.1245697 1.4907358 -0.27173558 -1.1946521
1.5761648 0.46124226 -2.697292 1.4789276 3.085648 0.23432833 1.0869088 8.185262
1.6858383 1.9763812 4.0575066 1.5061365 -3.0615218 3.981772 -0.9162826 1.6283947
-2.304342 0.80375874 3.5127492 3.4254124 -1.0636953 2.837302 -1.0021847 -4.2865415
0.3457004 -0.30211428 -0.2900917 0.10068691 0.10663037 -0.092657246 -0.08711434 0.097107686
-0.26979318 -0.25562653 -0.24825943 0.3842105 0.029429426 0.17688619 -0.7036255 0.2514863
-16.51615 0.5784245 0.2675048 -0.38394225 0.063886434 -2.1084154 -3.6969726 0.50365245
0.26752523 -0.21396334 -0.8253215 0.57105094 -0.7659221 -1.6070762 -0.0022454206 0.29111883
8.914715 -20.366629 1.3576852 2.136936 0.55395967 1.5501453 0.2696647 -4.217926
4.346943 2.8549843 -6.687455 -2.431248 -1.3129951 1.5303235 -2.457383 5.298048
0.8483658 -0.50777406 0.24691278 -0.25305253 -1.4503438 1.5956707 1.0171021 -0.8236326
-2.0392728 0.68657905 0.7189649 0.83904475 -1.4490764 2.4577339 -0.32631865 -7.2025313
-0.21358174 -0.06571023 0.13471167 -0.063769534 -0.14223383 0.08164103 0.08789289 -0.33243322
0.025929432 -0.008751194 -0.11859965 -0.3852903 0.05180721 0.037325095 0.17591588 0.5894155
-4.410483 1.3074683 0.33279446 0.5296605 -1.104141 -12.045264 0.12638225 0.30424747
0.2204158 0.69928503 -1.7430521 -0.1684105 -0.5678122 -0.75546664 0.41448146 2.5279367
-0.93044734 -5.284715 0.70262295 -0.9902817 -0.12872504 -0.706772 -0.2655339 1.0874114
1.4673747 -2.5090551 3.7162154 -0.12135576 7.054553 1.0912775 -3.8935437 2.4789207
1.772618 0.7751771 -4.663757 -0.2302057 3.5959597 -3.8657086 -1.0497574 -0.55753356
-1.8856708 0.89865893 0.15303507 1.8512204 -0.47238004 -0.36152178 -0.80175614 -3.3359103

transpose_9 f4 [16, 64]
00000000: d08d f93e f5f7 9fbe 39b3 403e 17f6 05bf
00000010: cde7 883e dcb0 2abd b5de e1be 918f f93d
00000020: ecd4 f93b 6159 15be ffc7 1fbf bf2f f5bd
00000030: df8b 1ebf aef0 9ebe dd64 9c3e 2fa1 15bd
00000040: 539c 903f f668 423e b8b1 2dbf 9bb6 9a3d
00000050: b326 8a3d 2a5d b8bf bd88 0d3e d617 db3d
00000060: 2a9f 48be 87e7 4a3e a06b 353c dd98 033f
00000070: 8b81 563f c4f6 293f c970 4cbe eed8 6e3e
00000080: 0dff 1dbf 6c82 45bf 017d 953f 6c88 90be
00000090: 70d5 103f 49bd 1ebe 1d50 8abe 81c0 52bf
000000a0: 6da9 013e 05f9 a5be 780b b13e cdcc 3c3e
000000b0: ae02 5bbf a653 823f 5938 97bf c34d 24bf
000000c0: ad48 f23e c5fa 39bf 33e7 823f c43c 2ebe
000000d0: 2927 d6be f9ce b9bf eb12 5cbe 69d8 33bf
000000e0: 5b59 a6bf b992 8d3d 56ca d6be cb36 13bf
000000f0: cf0f 103f 00fc 863a a107 80be 4313 18bf
00000100: 89a0 50be a2a3 e53c 136f 113e 63be 0a3f
00000110: 1ee0 0e3d 6d24 9bbf 48a6 09be d014 083e
00000120: e8b2 48bf 3d3a c8bc b3fb 563e 0024 023e
00000130: 2aa0 ab3c 586e ffbe f8ef 0c3f 7e56 ccbd
00000140: abc2 713f ec83 f13e 2509 8dbf a437 25be
00000150: b08d bcbf f6ce 783f 819c 803f 6e27 07be
00000160: fdf0 713f 2e31 b6bc 434a 09be 078f a1bc
00000170: f667 973f a1d9 12bf 34ab 9dbc 3142 1f40
00000180: 2fa7 ea3d bc0e 053e 8672 2cbf bd89 b13e
00000190: 15ec 29be d3c6 5e3f 1f65 533f c2f3 da3e
000001a0: 04f0 23bf e56d ac3e d97f 953e 7640 adbe
000001b0: 9ff8 863e 1318 a3be 918d f33d f619 d23e
000001c0: 519b a33f d30b 9cbf 5b19 e23f e4c5 67bf
000001d0: 41a3 48bd ee2b 543f 6b84 06c0 6090 0040
000001e0: 77bb d73f 0575 24bf f212 de3e c9de 90bf
000001f0: 096a eabf 513e edbf 4167 5b3f f7ab 10c0
00000200: 5b54 05bf 4bd6 953e 393d aebf 3c3e 60bf
00000210: e521 923f a92e bcbe 2038 933f 4c63 b2bf
00000220: f9e4 35be 6aed 3540 f491 88bf 4d88 883f
00000230: ee6e c73f 7f00 c33f 9d30 18bf cf8c 9e3f
00000240: 0de5 2cbf 847c 103f db69 8fbe 1aa9 c4bc
00000250: 835d d1be 939d 9e3e 04fc 273d e1a7 8cbf
00000260: eee7 eabe bba8 6c3e 8801 c5be ef16 263e
00000270: 2a96 573f 9f43 ac3d 900c 2d3f ddfe cfbe
00000280: efdd 9cbe a8c9 2abd 6a88 d9be 25ad c4be
00000290: c7cc 283e ade6 f33e 05d6 e3be 21ee 2ebe
000002a0: 0353 22be 28a8 05be afda a63e cc88 953e
000002b0: fc2b 60bb 70bc 31bc b187 e4be 4889 c93c
000002c0: 258b a43e dc1a 6cbd a43e 4ebd 7b5a 36bd
000002d0: 4d2d c6bc 234e 553d b20a 07bd 36f7 46bf
000002e0: ce33 e0bd 7042 ec3d 1095 923d f304 2bbe
000002f0: a1e0 3bbe adf7 39bb 8626 713e cae3 79bd
00000300: 559d babf f910 933f 622d cdbf 8b97 04c0
00000310: dae2 b0bf 1d36 b0bd 469f 3c3f 49b9 1540
00000320: 41f1 5e3f 54f1 cfbe b7e0 663f b8c4 ba3e
00000330: 7ab9 393f ff48 6abf 3782 9b3f 7e45 003e
00000340: 5754 eebe 0afc c9be 41ec 1cbe a15b adbd
00000350: 4fb4 3e40 d80b 233f 7032 0240 a1fc 8bbe
00000360: cb39 953f d7dc 97bf b791 90bf 3e32 ebbe
00000370: 31aa 11bf ed20 31bf 62cb b53c 118e 2cbf
00000380: 1cc8 29bc fd58 13be dff6 783e 047e 133f
00000390: b60a 723e efb4 123e e5b3 143d 2c53 a63e
000003a0: 92dd 033f 883c 1a3f c297 c73e 3d0c b63e
000003b0: 272f 01be 5031 063e 5a22 083e 00fa 7a3e
000003c0: a340 47be a9eb eb3e a43b 9c3d 01bf 5a3d
000003d0: 1444 7bbe 9a95 b43c af0b 02bf 9d9b 15be
000003e0: f043 0e3f 9866 353e 9b36 f53c 32ad 8c3d
000003f0: 1d1c 8bbd 3694 4bbe 4677 363e 4b56 303f
0.48741007 -0.31243864 0.18818368 -0.5232863 0.2673935 -0.041672572 -0.44115224 0.12185586
0.007624259 -0.14584877 -0.62414545 -0.119719975 -0.61932176 -0.31043 0.30545703 -0.03653067
1.1297706 0.18985352 -0.678493 0.075543605 0.067456625 -1.4403431 0.13821693 0.10697906
-0.19591966 0.19814883 0.011073023 0.51405126 0.83791417 0.6639216 -0.19964899 0.2332494
-0.617173 -0.77152133 1.1678773 -0.28229082 0.5657568 -0.15501894 -0.27014247 -0.8232499
0.12662287 -0.3241655 0.34579062 0.184375 -0.85550964 1.0181777 -1.1814071 -0.64181155
0.47321072 -0.7264827 1.0226806 -0.17015368 -0.41826752 -1.4516288 -0.21491592 -0.7025209
-1.2996019 0.06912751 -0.41951245 -0.5750548 0.5627412 0.001029849 -0.2500582 -0.5940439
-0.2037374 0.028032128 0.14202528 0.5419676 0.034881704 -1.2120491 -0.13442338 0.1328919
-0.7839799 -0.024441833 0.20994453 0.12709045 0.020950396 -0.49888873 0.55053663 -0.099774346
0.94437665 0.4717096 -1.1018416 -0.16134506 -1.473074 0.971908 1.0047761 -0.13198635
0.94508344 -0.022240248 -0.13407235 -0.019721521 1.1828601 -0.57363325 -0.019246675 2.488415
0.11457669 0.12993902 -0.6736225 0.34675398 -0.16593964 0.8702213 0.82576174 0.42764097
-0.6403811 0.33677593 0.29199103 -0.33838242 0.26361558 -0.31854305 0.11892236 0.41035432
1.2781774 -1.2191108 1.7663988 -0.9053633 -0.048983816 0.8287953 -2.1018322 2.008812
1.6854085 -0.6424106 0.4337383 -1.1317989 -1.8313609 -1.8534642 0.8570443 -2.260496
-0.5208184 0.29265055 -1.3612434 -0.8759496 1.1416594 -0.3675435 1.1501503 -1.3936553
-0.17763127 2.8426156 -1.0669541 1.0666596 1.5580728 1.5234526 -0.5944918 1.2386721
-0.67537004 0.56439996 -0.2801045 -0.024006415 -0.40891656 0.30979595 0.041011825 -1.0988733
-0.45880073 0.2311124 -0.3847773 0.16219686 0.8421351 0.08411335 0.67597294 -0.40624133
-0.30638072 -0.04169622 -0.42486888 -0.3841335 0.16484366 0.4763693 -0.4449922 -0.17083026
-0.15851979 -0.13052428 0.32588717 0.2920593 -0.0034205904 -0.01084815 -0.44634774 0.024601594
0.3213741 -0.057642803 -0.050352708 -0.044519883 -0.024191523 0.05207647 -0.032969184 -0.77720964
-0.10947381 0.115361094 0.07157338 -0.16701107 -0.18347408 -0.0028376386 0.23549852 -0.061008252
-1.4579264 1.1489555 -1.6029475 -2.0717494 -1.381923 -0.08604071 0.7368053 2.339434
0.87086874 -0.40613806 0.9018664 0.3647821 0.7254864 -0.91517633 1.2149113 0.12526509
-0.4654872 -0.39450103 -0.15324499 -0.084647425 2.9797552 0.6368995 2.0343285 -0.27341178
1.1658262 -1.186427 -1.1294469 -0.4593677 -0.56900316 -0.69190866 0.022191707 -0.67404276
-0.010362651 -0.14389415 0.24312924 0.5761416 0.23636898 0.14326833 0.036304373 0.3248533
0.51509964 0.60248613 0.3898297 0.35556212 -0.12615643 0.13104749 0.13294354 0.2450943
-0.1945825 0.46078232 0.07628563 0.05340481 -0.24537688 0.022043992 -0.5079908 -0.14610143
0.55572414 0.17714918 0.029933264 0.06868972 -0.067924716 -0.19880757 0.17818937 0.6888167

transpose_8 f4 [16, 64]
00000000: fa71 efbd 62f0 ae3e 2117 843e e2fb 5c3e
00000010: 9dc6 16be 3f02 ba3d 9d05 c33c 0768 013e
00000020: 920c 33bd cf1b a8bd 769a 6ebe 17ef 4abe
00000030: 96f8 2bbd 3533 3a3e 36bb 3d3e 4291 08be
00000040: 20fd b13f 6efb 6a3e 3aa8 f3bd d6df b33d
00000050: 2089 f1bd b6af 7cbf 63c1 0b3f 04d3 b4bd
00000060: 4bef 4abe 55bc 393e c293 23be 6d55 f9be
00000070: 16c3 8f3c 294a b3be 1cd2 86bc ce51 883e
00000080: 77ed b9be 5384 943f 5eb3 b7bf 704c e43d
00000090: 25e2 98be 078d 15be 4ff7 cb3f 59b5 3d3f
000000a0: e725 923f e7ee 8bbe c4b8 fb3e 1ddd 963e
000000b0: 2e2d f43e 08f4 81bd 8664 da3f 4e3c b93e
000000c0: f792 13bf 98b4 d7bf dcb6 723e f21c 09c0
000000d0: 19e9 a5be 43ec c53e 4977 2bbf 5f34 e13e
000000e0: c8f5 84c0 df03 803e 3071 c33f 3446 14c0
000000f0: 345d 99be 411e e43f 7e9b e5bf fab5 8a3f
00000100: 7c7b bcbd 9e9b cf3d cbbb 2fbe 507b 8c3d
00000110: 0ef2 2f3e 2b95 2d3e 1755 0fbe 9aaf 80be
00000120: f85f 153e 95f8 a93e 316a 5fbe 0bed 363e
00000130: 0091 2a3e f290 2e3d 64ab b13d 3589 623e
00000140: 68ed 38be c619 4f3e 843e 133e df7b 8bbe
00000150: 76e8 c03e afdb 0c3d 22d1 383e b36f 26be
00000160: ccdb b3be a89a f53c 18b6 e5bd f1e5 39be
00000170: f3df b6be daff 20be 93c7 7d3d aed6 35be
00000180: a8a3 ad3f c644 f53d 7c99 e8bd b94a 14c0
00000190: bfa4 3d3f abfc 1bc0 484d bebd 019b a8bf
000001a0: 3911 cfbe 917c 453d fe5f a2bf ce74 2c3e
000001b0: f053 11bf ad31 27bf 35f3 e4bf 2eb1 f3be
000001c0: 31a6 03c0 a011 943e 5995 3f3e c52d 87c0
000001d0: 149c 723e 4ac8 20bf d262 debf 91af c2be
000001e0: b30a 713f 4fd1 a23f b5e2 99be 8e99 bc3f
000001f0: 2d7d b3be 3e6c aebf 9205 8a3e b0a6 723e
00000200: 0db8 963f e763 943e 12eb da3e 22e6 b83d
00000210: a2fe 473e 1fc0 b93e ae16 f83e 47c9 943f
00000220: 6b79 d3be 4bcd c3be 4d5d b0bf 60eb a33e
00000230: 5f72 093d a61d f6bd 9150 753f 972b 333e
00000240: 482d 18be 3d46 44be 18f8 e2bf 7ff6 8cbd
00000250: cfe9 00bf 357e 753e 8583 0c3f 4cf6 93be
00000260: e39b 5a3d 4e07 67be 6b25 a53f 8ece 473e
00000270: eba8 873d 8ef8 d3be e072 a0bf 1024 6e3f
00000280: a685 2e3f c6cd 7abf 7801 d3bf 9b7d 1a3f
00000290: a796 3fbf 1f18 de3e f669 6d3f 642d 743e
000002a0: 0259 cebe 73ea a33f bbaa ee3d 0965 9abe
000002b0: e1fe 8dbc 66fb d03d 6ea7 763d c27d 6dbe
000002c0: 7688 12bf ce53 8a3e a2cc d7be 6c2a 85bd
000002d0: cfb8 b63e 2aa0 dbbd 2a92 c03f b821 06bf
000002e0: 95a4 473f 79fa 67bf 6ae3 c73f 28d9 c53d
000002f0: 6b77 5f3f b337 d8be ae6a 4e3f 5f8e 1b3e
00000300: e4b3 c6be 9cc6 17be e8b5 9f3e 4871 01bf
00000310: c334 183f 9333 d93e 32a3 c13c 9e34 f1be
00000320: 528b d6bd cbe4 283f 004e b53e f351 213f
00000330: 5545 0e3e c3d3 133f 57db a83e eb47 813f
00000340: 4d4a 883f 03c3 923e 945d 483f 290f 17bf
00000350: 390c a03f 0071 8abf bdf2 a4bf 3519 07bf
00000360: 70d8 64bf 9d50 a0be b399 23bf 26b4 d1be
00000370: b201 4fbf f8f0 9cbe 554e c23e c7b4 03bf
00000380: 0ec5 fb3f 59a9 c2bf b840 933e 973d 6b3f
00000390: b658 0b3e 04f0 c93c 94dd 863e a6b2 40be
000003a0: 94c4 7a3f 7534 0e40 2cec 52bf ace4 c4bd
000003b0: d541 abbf 0a0d eebe 9025 cdbe e317 a13e
000003c0: cb7d 8fbe a61c 263f 00da b1bf 41ff 403f
000003d0: ef7b e2be d1dc 0a40 6e99 f9be 1784 10bf
000003e0: 3463 1b3f 5e20 58bd f177 52bf 13af a0bf
000003f0: 02aa f2bf f401 013f 5a03 37bf 7500 a13e
-0.11691661 0.34167773 0.25798896 0.2158046 -0.14724202 0.0908246 0.023806388 0.1263734
-0.04371316 -0.08208429 -0.2330111 -0.19817768 -0.041985117 0.18183596 0.18528447 -0.13336661
1.3905373 0.22947475 -0.11897321 0.08782928 -0.11793733 -0.98705614 0.5459196 -0.088293105
-0.19817846 0.18138249 -0.15974334 -0.48697987 0.017549079 -0.35017517 -0.01645761 0.26624912
-0.36313984 1.1602882 -1.4351614 0.11147392 -0.29860035 -0.14604579 1.5934848 0.7410484
1.1417817 -0.27330706 0.49164402 0.2946557 0.4769072 -0.063453734 1.7061927 0.3617882
-0.57646126 -1.6851988 0.23702568 -2.1423917 -0.32404402 0.38656816 -0.6697889 0.43985268
-4.1550026 0.25002953 1.5268917 -2.3167849 -0.2995392 1.7821733 -1.7938077 1.0836785
-0.0920324 0.101371035 -0.17161481 0.068594575 0.1718218 0.16951434 -0.13997303 -0.25133973
0.1458739 0.33197466 -0.21817853 0.17863862 0.16656876 0.0426187 0.08675268 0.22122653
-0.18059313 0.20224676 0.14379317 -0.27242944 0.37677354 0.034389194 0.18048528 -0.16253547
-0.3512863 0.029980972 -0.11216372 -0.18154122 -0.35717735 -0.157226 0.061957907 -0.17757675
1.3565569 0.11976008 -0.113574 -2.3170607 0.7407951 -2.4372966 -0.09292084 -1.3172303
-0.40442827 0.0482145 -1.2685544 0.16841432 -0.56768703 -0.65310174 -1.7886721 -0.47596115
-2.0570185 0.28919697 0.18709315 -4.224337 0.23692352 -0.62805617 -1.7373908 -0.38024572
0.9415695 1.2720126 -0.30055776 1.4734361 -0.3505644 -1.3626783 0.26957375 0.23696399
1.1774918 0.2898247 0.4275747 0.09028269 0.19530728 0.3627939 0.48454803 1.1623925
-0.41303572 -0.38242564 -1.3778473 0.32015514 0.03355634 -0.12017374 0.9582606 0.17497097
-0.14861023 -0.19167419 -1.7731962 -0.06882953 -0.50356764 0.23973925 0.5488818 -0.28898847
0.05337132 -0.2256138 1.2902044 0.19512388 0.066240154 -0.4140057 -1.2535057 0.93023777
0.6817268 -0.97970235 -1.6484823 0.6034791 -0.7483925 0.43377778 0.9273981 0.2384544
-0.40302283 1.2805923 0.11653658 -0.3015521 -0.01733345 0.102042004 0.060218267 -0.23192504
-0.5723947 0.27017063 -0.4214831 -0.06502232 0.35687873 -0.10723908 1.5044606 -0.523952
0.7798551 -0.90616566 1.5616276 0.0966056 0.8729159 -0.42229995 0.8063153 0.15191029
-0.3880912 -0.14821857 0.3119347 -0.5056348 0.5945551 0.4242216 0.023637388 -0.47110456
-0.10475792 0.6597411 0.35411072 0.6301567 0.13893636 0.57745 0.32979843 1.0100073
1.0647675 0.28664407 0.7826779 -0.5900751 1.250373 -1.0815735 -1.2886578 -0.5277284
-0.8939276 -0.31311503 -0.639064 -0.40957755 -0.8086196 -0.30652595 0.37950388 -0.5144772
1.9669511 -1.5207931 0.28760314 0.91890854 0.1360806 0.024650581 0.26340926 -0.18818149
0.97956204 2.2219517 -0.8239162 -0.09613928 -1.3379465 -0.46494323 -0.4006772 0.31463537
-0.2802566 0.64887464 -1.3894653 0.75389487 -0.4423518 2.1697276 -0.4874987 -0.56451553
0.60698247 -0.052765243 -0.82214266 -1.2553428 -1.8958132 0.50393605 -0.7148949 0.3144566

transpose_7 f4 [16, 64]
00000000: 679c 6d3f cacb bd3f 9610 763f 65c4 8c3f
00000010: a3ff a7bf f810 37bf fca6 1abf 4399 bf3e
00000020: 9f16 4a40 8142 3d3f 6aca 77be 2eba 28bf
00000030: 912b 163f 1703 3540 2a1d 2d3e 6eaa eabe
00000040: ef24 1fbd f9b3 343f ce07 e73e c3ff f8be
00000050: 26b7 bfbe 7908 d23e 41cf 78bd 8a61 c93e
00000060: af36 87be 7073 adbe 6533 09bf 55bd b3bf
00000070: b9da ef3e 7000 9bbe 782b 9dbe a4c3 85be
00000080: 51d7 473e d892 fbbe 17e7 363e 3710 d53d
00000090: 5dc2 cc3d d43d cdbe f85a c23d e715 36bd
000000a0: 5956 8d3e f3db 1a3c dcf5 d43d b279 a13d
000000b0: 107b acbd 1d61 353e f685 b03c 7222 353e
000000c0: 9c19 503e 8a42 29bd 5cf0 ac3d 03c8 f73d
000000d0: 641b 603d 9574 1d3e d1fb 44be ecc0 183e
000000e0: 01aa 233f 52cc e6bd f319 453d bd1e 903c
000000f0: 57c0 303e 4d33 86be 174d e53e 96a6 b7be
00000100: 787f 2b3e 9bca 963e 224f 99bf 05aa 2bc0
00000110: eded 4dbf 54b1 93bf bc63 5440 9511 8dbf
00000120: b70b c2bf adaa 22c0 6356 8fbf 2f0c 593e
00000130: ee4e 743f 9db6 2740 3fd7 0440 bda1 dabf
00000140: d7ab 753d 48d6 633e a5cd d43f 185c 18bf
00000150: 6e83 5e3f 1181 033f b00c e93b 22d8 b53f
00000160: 76ca 42bf bf95 383f 73ba c43f 4958 013f
00000170: b52b e0be 7cd4 2dbf 9de7 a33f 69b5 923f
00000180: d7b1 0bbf e676 c9be 8390 05bf 229f 82be
00000190: 8c45 b1be fc18 b23e 65ac c8be 019d 3fbe
000001a0: 0afa 383f 0361 ae3e fa62 373e 9e3a 99bd
000001b0: ef16 d4be c8ba 8fbf 7ee2 1a3d 6cba 5b3f
000001c0: 1c5b 12bf c073 953e 7fa9 aebe 4aaa 42be
000001d0: d838 c53c eb6a 96bd 79f5 a13e 70a9 bcbe
000001e0: 5449 a2be 4aee 523d 4682 4fbe b864 fdbd
000001f0: 3805 67bc 90ac 2d3e e2ad f03d f70c 073f
00000200: a890 2e3f 87d7 a1be 468a e5bf 5f3e a0bf
00000210: 2f81 113e e6ca fcbc cd70 983e 3411 0640
00000220: 3fd8 143f fb46 db3e da43 f2bd d09a 123f
00000230: 9438 9b3e 6960 99bf 7f29 763f 2e50 17be
00000240: 531e b23f d2dd a5be 85f0 87c0 d381 6b3f
00000250: 70c9 243f cce7 ce3f 8831 f6be 0364 633f
00000260: 5029 51bf e5b1 4840 d36c 2ac0 ced9 30bf
00000270: a42c bd3d 438d f33f cdca 473f 902f 57c0
00000280: 7748 08be 85bc 9fbe 8f7d 22be f29f 6abe
00000290: 3d20 25bf 8475 6ebe 232a 063d b8eb 72be
000002a0: d2b6 4fbe 7185 4fbf 60db 883a 72c3 5bbe
000002b0: 41d9 b93e d55f 4f3f 3046 863e 7cd9 3ebf
000002c0: 5620 903d e46c 34be 736c 05be 6861 c03d
000002d0: aa3c 2fbd c1d5 88be 7682 393c e855 163e
000002e0: 1f6d 32be 893c ad3d 8050 64ba 5ece e03e
000002f0: 4e8a 343f ecd4 d9bd 30d7 7d3e 7428 dbbe
00000300: 5e18 dd3f 329c c5bf 77f6 f3be 33c9 853f
00000310: 0de9 1dbf 2e1a cbbf 9048 b7be 8b7d 95bf
00000320: bed9 d1bf ac35 8cbe 9f4a 883f 8609 5ebf
00000330: 4854 953e e941 a3bf 277f fe3f 1e19 e5bd
00000340: aa2c 783f 24bd 0ebe 6e54 81bd c046 88bf
00000350: 6eda c6be 9330 3cbf 4e6c e7be 7268 4abf
00000360: 7878 98bf bccb aabf 60dd 02bf edfb de3d
00000370: 316c b7be af8b 943f cf9f 8bbf ab9a c7be
00000380: b14d 103f 04de af3e 8224 43bd 0876 bebd
00000390: c8dc 913d 7ed1 b6be 0917 cd3e 5c97 76be
000003a0: b60e cb3c d043 27bd e087 bd3e 47dd 103e
000003b0: 7978 b1bd 2264 12bd 77f8 aabe 75be dfbd
000003c0: 99c1 99bc 5040 b0ba 6290 75be 95de 20be
000003d0: d62e ab3e 42ca 763e 2df5 d4be 29a8 633e
000003e0: ad48 983e 729d 68be 5888 0ebd 9829 bfbc
000003f0: 5523 84bd b67f 88bd 9862 be3d 9a41 ccbd
0.92816776 1.4827816 0.9611906 1.0997435 -1.3124889 -0.7151027 -0.6041105 0.37421617
3.1576307 0.739296 -0.24198309 -0.6590909 0.5866023 2.8283136 0.16905656 -0.45833153
-0.038853582 0.70587116 0.45123142 -0.4863263 -0.3744442 0.4102209 -0.060744528 0.3933223
-0.26408908 -0.33877134 -0.53594047 -1.4042155 0.4684656 -0.3027377 -0.30697227 -0.26125824
0.1951573 -0.4913547 0.17861591 0.10403483 0.09998009 -0.40086234 0.09490007 -0.04445448
0.2760494 0.009451854 0.103984565 0.0788454 -0.0842191 0.17712827 0.021548253 0.17688921
0.20322269 -0.041323222 0.084442824 0.12098696 0.05471362 0.15376504 -0.19236685 0.14917344
0.6393128 -0.1126944 0.04812045 0.017592782 0.17260872 -0.26211014 0.44785377 -0.35869282
0.16747844 0.2945145 -1.1977274 -2.6822522 -0.8044117 -1.1538491 3.3185873 -1.1020991
-1.5159825 -2.5416672 -1.1198238 0.21196054 0.9543294 2.6205208 2.0756376 -1.7080609
0.059978332 0.2224971 1.6625258 -0.59515524 0.86919296 0.51368815 0.007112108 1.4206583
-0.7609018 0.72103494 1.53694 0.5052534 -0.43783346 -0.6790235 1.2805058 1.1461612
-0.5456824 -0.39348525 -0.5217363 -0.25512034 -0.34623373 0.34784687 -0.39194027 -0.18712236
0.7225653 0.3405839 0.1790885 -0.074818835 -0.41423747 -1.1228876 0.037813656 0.8583133
-0.5717027 0.29189873 -0.3411369 -0.19010273 0.024074957 -0.07344612 0.31632593 -0.3684802
-0.3169657 0.05149678 -0.20264539 -0.12372726 -0.014100365 0.16960359 0.117519155 0.5275416
0.6818948 -0.31609747 -1.7932823 -1.2519034 0.14209436 -0.030858468 0.2977356 2.0948
0.58142465 0.4282759 -0.11829348 0.57267475 0.30316603 -1.1982547 0.9615707 -0.1477668
1.3915504 -0.32395798 -4.2481103 0.9199497 0.6436987 1.6164489 -0.48084664 0.8882448
-0.8170366 3.1358578 -2.662892 -0.69082344 0.0923703 1.9027485 0.78043824 -3.362278
-0.13308893 -0.31198516 -0.1586821 -0.22912577 -0.64502317 -0.23287016 0.03275503 -0.23722732
-0.20284584 -0.8106299 0.0010441355 -0.21461275 0.36298564 0.81005603 0.26225424 -0.74550605
0.070374176 -0.17619663 -0.13029651 0.09393579 -0.042782463 -0.2672558 0.011322608 0.14681208
-0.17424439 0.08458812 -0.0008709505 0.43907446 0.70523536 -0.10636315 0.24789119 -0.428043
1.7273061 -1.5438292 -0.47648975 1.0452026 -0.6168373 -1.5867364 -0.35797548 -1.1678938
-1.6394575 -0.27384698 1.0647773 -0.8673328 0.29165864 -1.2754489 1.9882554 -0.11186431
0.9694315 -0.13939339 -0.06314932 -1.0646591 -0.38838524 -0.7351162 -0.45199817 -0.7906562
-1.1911764 -1.3343425 -0.5111904 0.10887895 -0.3582473 1.1605128 -1.0908145 -0.3898519
0.5636855 0.34349072 -0.04764224 -0.092998564 0.07122189 -0.35706705 0.40056637 -0.24081177
0.024787288 -0.040836155 0.37017727 0.1414691 -0.086655565 -0.035740025 -0.3339269 -0.10924999
-0.018769072 -0.0013446901 -0.23980859 -0.15709908 0.3343417 0.24100593 -0.41593304 0.22232117
0.29742947 -0.2271631 -0.034797996 -0.023335263 -0.064520516 -0.06664984 0.09296149 -0.0997345

transpose_6 f4 [16, 64]
00000000: 8beb 603f c733 a33f 731c 46c0 8fcf c0be
00000010: 3b4c 19c0 0df5 05c0 9567 d3bf 86ee 82bf
00000020: 2d72 23bf e272 77be 3d58 5abe 330d 8ac0
00000030: eb61 16bf fdf1 bbbe 4819 f8bf b788 0340
00000040: 2828 343d b87d 09bf 48a9 3ebf 81f4 103f
00000050: f5eb 0440 7848 8b3e ff60 0abf 5c10 9a3f
00000060: 0b79 bfbf 0a82 ddbe 3d9d 113f 82fe bd3e
00000070: ce70 863f 8c83 7bbc 8a59 2e3f d106 d23e
00000080: e939 8fbf a6ae 48be b332 8abf f19b 25bf
00000090: 7302 08bf 1131 823f 2b05 c5bf 38cc 79be
000000a0: 60d1 fc3e 1436 20be 4de6 8ebd a49d 7e3e
000000b0: 3e71 a3be 3f9e 97bf 2c8c f7bd 06b3 1c3f
000000c0: a3c7 c63d 4c34 40be 1640 37bd 05e9 01bf
000000d0: 4378 363d 2eb3 71be 7f2b f33d 85ff 20be
000000e0: c921 48be 095a 13be 0687 eabd 5968 103f
000000f0: c58e 493e 8761 11be 9aa3 a9be 0758 edbe
00000100: 5df8 b93e 3c5b 7dbd a531 4ebe 78e0 09bf
00000110: 44f9 d9bd 7220 973f 86b7 053f a300 b33e
00000120: 61ca bcbd 25ee dfbe fcde cc3e 289c 7f3e
00000130: 085a e4be a56a bf3e c862 003f 6fc2 3bbe
00000140: 403f 943e 26a6 f83c 80ba 3ebf 672a f83d
00000150: a558 b3be 42f2 7d3f 3004 3240 f3b5 bb3e
00000160: c963 c43e 4123 b63e 67b4 a23e 8168 f53e
00000170: 05ce a13f 5765 693d c10a 483f bb91 0440
00000180: d980 6b3f 3aff 3cbe d037 dbbe c36d 3c3e
00000190: f2b5 bfbd 9b96 1c3f 5e6f dbbd f7aa 3abe
000001a0: ee57 333e 5d39 4c3e dc27 0c3e 5adf d03d
000001b0: 1143 c7bc 4d67 c0bd bcf6 b03d 3891 b7be
000001c0: a4e5 c13c 49c1 323d a607 b13f 0812 ecbd
000001d0: e384 81bf 19fa e93e 62eb 17be e263 713f
000001e0: 6667 8c3d 4ddd 77bc c067 963e b259 9c3f
000001f0: 066f 0b3e 29ff 3e3f 2334 91be 5ef6 69be
00000200: 9c69 f33f e52d 2e3f 3522 e03f 6bab cfbe
00000210: 83c2 f53e 8c9d a7bf 1f91 fb3e cb04 aa3e
00000220: f84a a4bb 0f02 1040 7335 d93e 265c 6ebf
00000230: 4149 963f 7175 d9bf b175 83bf 57cf ed3f
00000240: bc64 c63d 11a8 07be 17db b43e e8ef a03d
00000250: ec29 a1be ed9d 133f e5fa 26bf 5586 3f3e
00000260: 14b5 25bd d7ab f9bb b0c0 1c3e 9f4f c4bd
00000270: a85d fabe e23a f9be 6b72 2c3f d5aa 953f
00000280: c9b1 c43f f23f 56be 39e0 a73f 4fff 983f
00000290: 5216 6c3f 7b4e c0bf 8f5c d33f b5ff 423f
000002a0: 5da2 97bf e1fe 93be db20 ba3e 00cf 65be
000002b0: ebdd 1f3f 3220 4040 84b1 883f 92cf 12c0
000002c0: 982f a6be 240b ad3b 2b8c 94be a5b3 a2be
000002d0: ddc7 933e 7ebf b0bd 87d3 243e 86e5 9bbd
000002e0: 2c86 743d b660 6cbd dca5 2dbd 5bc9 ed3e
000002f0: 72bc dbbc 1e5f b23e e07f a2be 8cbb b6be
00000300: 7c7b 1640 9554 473f efb2 d6bf 347b 493f
00000310: 2125 2640 e14e 3640 c715 b4bf 5049 d3bf
00000320: c2a7 773f 0f87 e13d 4752 56bf ff47 a5bf
00000330: 63c4 8fbe 207b cebd 8633 dfbb 3e4d 79bf
00000340: 083f ee3f 6b33 b8bf 6bcb 0640 9426 3a3c
00000350: b632 2cc0 59c8 2dbe 04fb 0cc0 cbae b3bf
00000360: 586c 7abe b7ae 2e3f 04e0 16bf f5b4 17bf
00000370: 4539 23c0 d67a 6ebd fe3a 163f 21b4 f93f
00000380: cffe 8b3d ade6 c93d e1c2 82be 0215 a1bc
00000390: 2aed 533d 5c1e 9d3d c092 d2bd 3d26 9f3d
000003a0: c46e db3d 4b68 3b3f 8637 fb3e a8a7 f43d
000003b0: 180f 20be eff6 72be 0cb0 b0be 05bf fb3e
000003c0: d8d7 993d 9b94 f43e 9252 c0be a8ce 2cbd
000003d0: c929 403e a268 033e 02ff 33bf 0a19 8dbd
000003e0: cd1d 153f b4c8 ec3d 4e80 8fbe 0074 e93e
000003f0: 4b65 a7bd ad01 06bf 38f3 7bbc de34 f3be
0.8785941 1.2750176 -3.0954864 -0.37658355 -2.3952777 -2.0930817 -1.6515986 -1.0229042
-0.63846093 -0.24164918 -0.21322723 -4.314111 -0.5874316 -0.3670806 -1.9382715 2.0552194
0.04398361 -0.53707457 -0.7447705 0.56623083 2.0769017 0.27203727 -0.54054254 1.2036242
-1.4958814 -0.43263274 0.5688055 0.37108237 1.0503175 -0.015351187 0.68105376 0.41020826
-1.1189548 -0.19597873 -1.0796722 -0.6469107 -0.5312874 1.0171224 -1.5392202 -0.2439431
0.4937849 -0.15645629 -0.0697752 0.24864823 -0.31922334 -1.1845168 -0.120872825 0.6121067
0.097060464 -0.1876995 -0.04473885 -0.50746185 0.044548284 -0.23603508 0.118735306 -0.15722473
-0.19544138 -0.14389814 -0.11451535 0.5640922 0.19683369 -0.1419736 -0.3313263 -0.46356222
0.363223 -0.061854586 -0.20136125 -0.5385814 -0.10643247 1.1806777 0.5223316 0.34961423
-0.09218288 -0.43736377 0.40013874 0.24961913 -0.44599938 0.3738605 0.5015073 -0.1833589
0.28954506 0.030352663 -0.74503326 0.121174626 -0.35028568 0.9919778 2.7815056 0.36662254
0.3835738 0.35573772 0.3177826 0.47931293 1.2640997 0.05698141 0.7814141 2.0713947
0.9199348 -0.18456736 -0.4281602 0.18401246 -0.09360875 0.61167306 -0.10714601 -0.1822928
0.17514011 0.19943757 0.1368708 0.10198851 -0.024323972 -0.09394703 0.08640811 -0.3585298
0.023669071 0.043641362 1.3830459 -0.11526877 -1.0118679 0.45698622 -0.14835885 0.94293034
0.06855659 -0.015128446 0.2937603 1.2214873 0.13616571 0.74608094 -0.2836009 -0.22847888
1.9016604 0.6803878 1.7510439 -0.4056047 0.47999963 -1.3094954 0.49134156 0.33206782
-0.00501382 2.2501256 0.4242359 -0.9310936 1.1741105 -1.6988965 -1.0270292 1.85789
0.09687182 -0.13247706 0.35323402 0.078582585 -0.31477296 0.5766285 -0.65226585 0.18703587
-0.040455893 -0.007619362 0.1530788 -0.09585499 -0.4889958 -0.48677737 0.6736209 1.1692759
1.5366756 -0.2092283 1.3115302 1.1952914 0.9222156 -1.502395 1.6512622 0.7617143
-1.1846424 -0.28905395 0.36353192 -0.22442245 0.62447995 3.001965 1.0679173 -2.293919
-0.32458186 0.005280869 -0.2901319 -0.31777683 0.2886342 -0.08630274 0.16096316 -0.076121375
0.05969827 -0.05770942 -0.042394504 0.46442685 -0.026823256 0.34838194 -0.31738186 -0.35689962
2.351287 0.77863437 -1.6773356 0.7870362 2.5960162 2.8485644 -1.4069146 -1.6506748
0.96740353 0.110120885 -0.83719295 -1.2912596 -0.2807952 -0.10082078 -0.006811562 -0.9738349
1.8612986 -1.4390692 2.1061656 0.011361737 -2.6905951 -0.16970958 -2.2028208 -1.4037718
-0.24455392 0.68235344 -0.5893557 -0.59260494 -2.5503705 -0.058222614 0.58683765 1.9508096
0.0683571 0.09858451 -0.25539306 -0.019663338 0.05173985 0.07671806 -0.102818966 0.07770965
0.10714486 0.73206013 0.490658 0.119460404 -0.15630758 -0.2372701 -0.34509313 0.49169174
0.07511872 0.47769627 -0.37562996 -0.04218927 0.1876594 0.12832883 -0.70310986 -0.068895414
0.582486 0.115617186 -0.28027576 0.45596313 -0.08173617 -0.5234631 -0.015377812 -0.47501272

transpose_5 f4 [16, 64]
00000000: 357a 87be 5e7d 923d 8042 223d 6a84 acbe
00000010: 5fe1 debe 8354 b7be bc4a 923e db56 c93c
00000020: cde7 223d 93a5 91be 97f5 e63d ef08 21be
00000030: eeb4 5e3e 661c 51be 1875 3fbb 7f8b 8abd
00000040: d129 b93e 206c e5be 881a 393f 3ab7 c2bd
00000050: e718 e33d bdf7 003f 2822 d4bf 25d4 38bf
00000060: 8c13 24be 4327 3dbf 0deb 3e3e 40c3 48bd
00000070: bb35 9cbf e38e 9c3e 01bf 00bf 2e1d ad3d
00000080: 15ea 6e3f a427 8b3f 413f b73f b012 ff3f
00000090: fa99 683f a00d aebd 1784 3b40 8eef 723f
000000a0: 973e b0be 6eaa 4c40 4526 0d40 0d9a fdbe
000000b0: 4410 f1bf 94e3 34c0 6511 58bf 8e8a 823f
000000c0: 85e3 95bf 721e b53e 3c3b 06be b274 70bf
000000d0: 692f fcbc e453 88c0 3305 0940 b217 78bf
000000e0: e473 0fbf 51ca 75bf 0fc0 84bf 195d 1dc0
000000f0: 9326 1040 c10b 44c0 f439 8c3f f628 663e
00000100: a98f 12bd 7b25 333f 48ff a4be 4ddc a9be
00000110: bc48 80be f159 68be c15d 203e 1a82 debc
00000120: c43b 54bd a6f9 bbbe 20d2 0c3e 6982 1fbf
00000130: d60e 343e 9b66 27bf 430d 30be 68ec 0abe
00000140: 9738 1140 c105 84be ea85 f53e 0286 9d3d
00000150: 792b 98bf 6789 33bf 0c1e 2c3e 48ac 23bf
00000160: 3680 75be dffb 9abe 7880 e9be ea87 f5be
00000170: cc74 88bf 7dc9 f73e 00e2 8ebe 6210 e33e
00000180: eebf 4f3e 0e1c 483f 7682 5c3c 7fbb 8bbc
00000190: 33ca 08be 4174 7e3e 3b03 453e b4b6 b93d
000001a0: 5ffa 103e f805 353e 62af 7abe 7b18 913d
000001b0: 270e 9f3e ecba 9abc cc41 273e a8a0 993c
000001c0: fbaa cf3f 07af b8be 6adf e13f ebdc fdbf
000001d0: ea68 f43d b25e 78bf 79cd 3640 99f3 1440
000001e0: 036e 40bf 4fca 3b40 c540 b7bd 9165 1b40
000001f0: 6e7c c13f 3715 4440 3ac2 fabd 6ac0 b83f
00000200: 378d 85bd af1e 343f 3cf9 74bd 4e4d a03d
00000210: ac4a c2be 585f 2cbf 5729 523f 21cc b03e
00000220: f150 523e 286f 313e a0db 47bc 0593 a5be
00000230: f1d2 0c3f b2a4 b1bd 57f8 cfbe f41d cabc
00000240: 19f7 b6bf d86a 2c3e 4801 72be e8fc a53e
00000250: 5a5b f2be 4597 de3f 4b2a 8f3f 89a6 1fbd
00000260: a05e 993e f230 123c 13c1 1f3e b212 6abf
00000270: 5872 323f aee6 a73d 01bd f5bd 979d 3d3f
00000280: edc0 07c0 cdf0 4740 0f10 003f 0d55 a8bf
00000290: 8156 153e b5b6 a5be 122b d3be 7b23 2d3f
000002a0: 39d9 85bf ac4e 0cc0 0fc0 a13f 298c d83e
000002b0: 564d fd3f 7fd0 97be 9251 0c3f 6491 81be
000002c0: 72e4 ab3e e076 ccbb 1dbb c3be 23ee 873e
000002d0: 2988 3c3f 6f03 c8bf 03da 8cbe 128a b9bd
000002e0: 5a6b 543d 80c8 90be c5d6 183e 3c22 8dbe
000002f0: b77e 053f 9318 90bf 7317 ec3e 6cff 013f
00000300: d8d8 903f 2c70 92bf 0009 073f 90b0 6bbf
00000310: 1d96 1d40 300d c03f 8429 803f 6583 2f40
00000320: 7955 e53e 7986 a13e 0d2f 07c0 1172 81bf
00000330: 6712 d2be 2546 5ebf 8fe0 d6bd 0427 e1bf
00000340: feec 04bf 3a2e 2d40 a193 0e3f 0d31 a63f
00000350: 513c b240 f8cb 23c0 d5e7 01c0 4d73 633f
00000360: b9a1 0cc0 29b5 13c0 aea8 5340 eff2 e93e
00000370: a2b8 6c40 fc9d b4be 3a67 663e 91a5 94bf
00000380: d5ea 8e3f df72 033f ebeb 06bf b1d3 bc3e
00000390: 8cd9 89bb a1d0 a3be b18c bc3e e0ce 23ba
000003a0: 6ce9 dd3e c36b 943e b8eb f7be 4e65 c73e
000003b0: 31f3 193e d238 4dbe c81d 243d c279 ecbe
000003c0: 333c 2d3f 52c7 bebd 6bc8 fa3e 52c4 353e
000003d0: dcf8 183f c525 4e3e ae8a 2bbe c8e5 4dbd
000003e0: d48d f2be 9aaf bf3e 30ff d93e 7135 8f3e
000003f0: c757 d4be 8d60 fa3e c7ef a43e 77ae 22be
-0.26460424 0.07152818 0.0396142 -0.33694774 -0.4353132 -0.35806665 0.28572643 0.024577549
0.039771844 -0.28446636 0.11277311 -0.15726064 0.21748707 -0.2042099 -0.002921408 -0.06764888
0.36164716 -0.44809055 0.7230611 -0.09507604 0.11088734 0.5037802 -1.6572924 -0.72198707
-0.16023082 -0.73888034 0.18644352 -0.04901433 -1.2203897 0.30577764 -0.5029145 0.08452831
0.9332593 1.0871472 1.4316179 1.9927578 0.9085995 -0.084986925 2.9299371 0.9489678
-0.34422752 3.1979022 2.2054608 -0.49531594 -1.8833089 -2.8263903 -0.8440154 1.0198534
-1.1710058 0.3537479 -0.13108534 -0.9392806 -0.030784326 -4.2602406 2.1409423 -0.96911156
-0.5603621 -0.96011835 -1.0371112 -2.4588072 2.2523544 -3.0632174 1.0955186 0.22476563
-0.035781536 0.69979066 -0.32226014 -0.3317589 -0.25055492 -0.2269056 0.15660764 -0.027161647
-0.05181481 -0.36713904 0.13752031 -0.62308365 0.17583784 -0.6539094 -0.17192559 -0.13566744
2.269079 -0.2578564 0.4795373 0.076915756 -1.1888267 -0.70131534 0.16808337 -0.63934755
-0.2397469 -0.30270287 -0.45605826 -0.47955257 -1.0660644 0.4839591 -0.279068 0.44348437
0.20288059 0.7816781 0.013458839 -0.017057179 -0.13358383 0.24849035 0.19239514 0.09068051
0.14158009 0.17678058 -0.24480966 0.070847474 0.31065485 -0.01888796 0.16333693 0.018753365
1.6224054 -0.36071035 1.7646306 -1.9833044 0.11934073 -0.97019494 2.856291 2.327368
-0.75167865 2.934223 -0.08947901 2.4280741 1.5116098 3.0637949 -0.12244077 1.443372
-0.06521075 0.7035932 -0.059808 0.07827245 -0.37947595 -0.67332983 0.8209433 0.34530738
0.20538689 0.17327559 -0.012198359 -0.3233873 0.5500937 -0.08673991 -0.40619156 -0.024672486
-1.4294158 0.16837633 -0.23633301 0.32419515 -0.4733532 1.7389914 1.1184782 -0.03897718
0.29955006 0.008922802 0.15600996 -0.91434777 0.69705725 0.081982955 -0.1199894 0.7406859
-2.1211503 3.1240723 0.50024503 -1.3150955 0.1458378 -0.32365957 -0.41243798 0.67632264
-1.0456916 -2.1923018 1.2636737 0.42294434 1.9789226 -0.29651257 0.54811966 -0.25306237
0.33572727 -0.006239757 -0.38228694 0.2654887 0.73645264 -1.5626048 -0.2751008 -0.09059538
0.05186019 -0.2827797 0.14925678 -0.2756518 0.52146477 -1.12575 0.4611164 0.5078037
1.1316175 -1.1440482 0.5274811 -0.9206629 2.4622872 1.5004025 1.001267 2.7423947
0.44791773 0.31547907 -2.1122468 -1.0112935 -0.41029665 -0.8682578 -0.1049205 -1.7590032
-0.5192412 2.7059464 0.55694014 1.2983719 5.569863 -2.5593243 -2.029775 0.8884781
-2.1973708 -2.3079321 3.3071704 0.45693156 3.698769 -0.35276783 0.22500315 -1.1613027
1.1165415 0.51347154 -0.5270373 0.36880258 -0.004206842 -0.3199511 0.3682609 -0.00062487833
0.4334215 0.28988466 -0.48422027 0.38944477 0.15034176 -0.20041206 0.040067464 -0.46186644
0.6766998 -0.09315361 0.48981032 0.17750672 0.5975473 0.20131595 -0.16752121 -0.050267965
-0.4737383 0.3743866 0.42577505 0.2797046 -0.4147322 0.48901787 0.32214186 -0.15886866

transpose_4 f4 [16, 64]
00000000: 240a 2dbf effe 2ebf d8ef 4a3f f560 c2bf
00000010: 7f5b a5be 7bf6 253f b327 ab3f d07f 7b3f
00000020: 7656 463f 958e 783c d013 cd3e 818b 343e
00000030: 03f2 d73d bd0e ca3e 9709 aa3e 9b35 ebbe
00000040: d339 8ebf 5ce7 28c0 21ec 20c0 2351 8a40
00000050: 030c 7fbe 9c76 5cbe 17e8 5c3f 471c 2940
00000060: 90e8 ba3f cd52 84c0 a7a5 0bc0 c64f 2fc0
00000070: bb28 11c0 ac26 243e 3903 c640 4ced 4dc0
00000080: 99bc 793e a5ec 11bd 4dc1 50be bfd1 bbbc
00000090: 3cc9 f4be 93d6 a0be fae7 37be 481b 5c3d
000000a0: d311 b93d abd4 9abd 7c0e 583e 0976 43bc
000000b0: 8d9a e9bd 5d87 bebe 12d2 02be ff49 083f
000000c0: feb2 7c3e a732 e5bc 43b3 9bbd c4a6 eb3b
000000d0: d899 f83d c7dc 4fbe e300 ac3e 388b a73d
000000e0: 7d36 e8be 84cf de3d 845c 863e 1d41 9cbe
000000f0: 2e6e 433e 7d27 a1be e8a9 8ebd 5001 26bd
00000100: 5163 86bf cb85 dd3e 69f1 86be 59a7 0bbf
00000110: cc95 083f 9b1a 76bf 54a7 703d 77c6 8a3e
00000120: 9e0e fe3e d79d 853e 50f9 413f 35aa 26be
00000130: d0d9 aabe 106f 4c3e 57bc 75bd acc3 8f3d
00000140: 8183 7dbd 99a2 d3be a005 0740 3c84 80bf
00000150: e641 6d3f ee3c aa3c 00dd d739 c4c1 39bf
00000160: 0822 c640 cd0c a0bf 8f6b 54c0 c3ae 1140
00000170: 5dcf 8a40 1311 7640 46ec e33e 5b35 f9bf
00000180: e0a4 9d3d 89dc 9d3e 1a7c dd3d 82ad 693e
00000190: 2bba b1bd 9535 01be 7f51 1a3e fbea 583e
000001a0: d5e4 3b3e 18a3 923e f76e 253e 7e17 d63c
000001b0: f5c4 ccbd a90c 16bf 0fdb debd 409e 163f
000001c0: 216e 3fbe 87c1 0d3e 9e6d 7fbe 7083 b7bc
000001d0: 9041 203e 20d2 373e da89 5d3e 188f 2b3e
000001e0: fc0c 94be 864a 6e3e 3d41 203d 3e9d 02bf
000001f0: ef02 623e 8069 1c3e a95f 46bd 2ecc 5b3d
00000200: d8c9 eebe a5fc 8ebf a76a bdbf 52ee 77bf
00000210: 5aa1 7c3f 87f4 413f 8add 7f3f b3d2 4cbf
00000220: 2a2d 69c0 2e04 eb3b 432f 863f c134 243f
00000230: a251 68bf d15b 01c0 15b3 4cbf 7934 af3e
00000240: 5319 983e 090f a6bd 60d4 5ebe 3d02 063e
00000250: 2fb1 8abe 60e9 0f3f ac31 b8bd 1eb6 57bf
00000260: 3842 8bbd 0b33 cc3e c30e a33e ca1e c13e
00000270: c3c6 ed3e 2f45 03bf 1778 233f 4a1d 3c3e
00000280: b26c 88be 84ea 563e 1513 e8be 3c0c 11be
00000290: 7803 1c3e bead 42be 6e64 303c baf3 c93e
000002a0: 45d4 91be b187 18bc b492 b53e 5f87 233e
000002b0: 8b04 da3e 774e 593d b45a e9bd d619 a13e
000002c0: 0e68 52be 3ed4 b73d 68f8 27bd 5070 8d3c
000002d0: 44e9 80bb 005d 053d df3b 043e 44c8 fb3c
000002e0: 4f46 bebe 5c19 55bd 5c8a 323e 2ca3 583c
000002f0: a7bb 163e ddc9 f73e 2f65 553d fc6c ef3d
00000300: 4e25 ae3f 34fa 95be f835 a93f 966d f83f
00000310: 2138 9c40 d528 c4bf 311f 0d40 4b35 203f
00000320: cb2a 23bf 21a0 2340 fff6 0740 c900 133f
00000330: 34ef e83f 5744 8e3f 7b7a b13e a6c9 4abf
00000340: e7b1 7d3e 87d5 d63d 0692 633f a9da ccbf
00000350: 9cb1 54bf f753 b5be 5cd5 fbbe 93ab 3d3f
00000360: 66e3 75bf f73c 0bbf 7235 42bf 658a 043f
00000370: c976 8bbf 49f8 50bf eb6e 14bf 5da4 ee3f
00000380: dd1f a4bf 2816 59bc f7fb 83bf 4efc 46bf
00000390: 49be 24bf 6e15 313f fe75 04bf 285b 48be
000003a0: f1f7 0a3e dd8b 073f ace0 fa3e d168 f5bd
000003b0: 7415 1dbf b943 cfbf ae7c f3be 8956 a73f
000003c0: fa90 b0be 22c6 87bd 8bc8 01be a870 77be
000003d0: 2a67 d33e a6bc fdbe fd87 b33e a1e5 1ebe
000003e0: c3e9 20be 5831 a83d a6f3 9cbe dfc7 18be
000003f0: e5a4 9ebe 2702 863e 55e6 913d f86f 353f
-0.675936 -0.6835775 0.7927222 -1.5185839 -0.32296368 0.64829224 1.337149 0.982419
0.7747568 0.015170713 0.40054178 0.17631342 0.10544207 0.3946437 0.3321044 -0.45939335
-1.1111397 -2.639121 -2.5144122 4.3224044 -0.24906926 -0.21529621 0.8629164 2.642351
1.4602222 -4.1351075 -2.1819856 -2.739244 -2.268111 0.16030377 6.1878934 -3.2176085
0.2438835 -0.035626072 -0.20386238 -0.022927163 -0.4780978 -0.31413707 -0.17959586 0.053736955
0.09036603 -0.075600944 0.21099275 -0.011929997 -0.11406431 -0.3721265 -0.12775448 0.5323791
0.24677655 -0.027978254 -0.07602551 0.007191511 0.12138718 -0.20299064 0.33594427 0.08180851
-0.4535407 0.10879424 0.2624246 -0.30518427 0.19084999 -0.3147544 -0.06966001 -0.040528595
-1.0499059 0.43266138 -0.26356056 -0.5455223 0.5335357 -0.96134347 0.058753327 0.27104542
0.49620527 0.26096985 0.75771046 -0.16275866 -0.33369303 0.19964242 -0.059994068 0.07019743
-0.06189299 -0.4133499 2.1097183 -1.0040355 0.9267868 0.020781007 0.00041172653 -0.7256129
6.191654 -1.2503906 -3.3190649 2.2762916 4.337813 3.8447921 0.445162 -1.9469408
0.07697463 0.30832317 0.10814686 0.22820094 -0.08678087 -0.12618096 0.15070151 0.21183388
0.18349011 0.28640056 0.16155611 0.026134249 -0.09998504 -0.5861307 -0.10881626 0.5883522
-0.18694355 0.13843356 -0.2494416 -0.022401541 0.1565001 0.1795125 0.21634617 0.16753805
-0.28916156 0.23270616 0.039124716 -0.5102118 0.22071432 0.1527462 -0.048431072 0.053661518
-0.4663837 -1.1170851 -1.4798173 -0.9684802 0.986837 0.75763744 0.99947417 -0.80009
-3.6433816 0.007172129 1.0483173 0.64142996 -0.9074956 -2.021229 -0.7996076 0.3421972
0.2970682 -0.081083365 -0.21760702 0.13086791 -0.27088305 0.56215477 -0.08993849 -0.84262264
-0.067997396 0.39882693 0.318472 0.37718803 0.46440706 -0.5127744 0.6385512 0.18370548
-0.26645428 0.20987898 -0.45327058 -0.14164823 0.15235698 -0.1901159 0.010766132 0.3944376
-0.2848226 -0.009309695 0.35463488 0.15969609 0.4258159 0.053053346 -0.113942534 0.31465024
-0.20547506 0.08976029 -0.041008383 0.017265469 -0.0039340574 0.032559395 0.12913464 0.030735143
-0.37163016 -0.052026138 0.17435592 0.013222497 0.14720021 0.48396197 0.05209845 0.11690709
1.3605134 -0.29292452 1.3219595 1.9408443 4.8818517 -1.5324961 2.2050288 0.6258132
-0.6373717 2.5566485 2.1244504 0.57423073 1.8197999 1.1114606 0.34663758 -0.7921394
0.24774896 0.10489946 0.8889469 -1.600423 -0.8308351 -0.35415623 -0.49186218 0.74089926
-0.9605011 -0.543899 -0.758628 0.51773673 -1.0895625 -0.81628853 -0.5798175 1.864391
-1.2822224 -0.013249911 -1.0311269 -0.77728736 -0.6435285 0.69173324 -0.5174254 -0.19566023
0.13571145 0.5294779 0.48999536 -0.11982883 -0.6136086 -1.6192542 -0.4755606 1.3073283
-0.34485608 -0.06629588 -0.12674157 -0.24164069 0.41289645 -0.4955799 0.35064688 -0.15517284
-0.15714173 0.082125366 -0.3065464 -0.14919995 -0.3098518 0.26173517 0.071240105 0.70873976

transpose_45 f4 [16, 64]
00000000: c1a2 433f 0d33 66bf 2369 c13e fae0 fabd
00000010: 264d 683f e24a cf3d 864b 35bf 49a0 eb3e
00000020: 21a3 dd3e 65b8 06bf 85b2 913e 887c dabc
00000030: 77d1 02bf f485 0dbf a774 15bf 01ce eebe
00000040: dfef 95be 6e79 6f3d 2460 413d 6117 e33d
00000050: 426b 743e 0824 78be 226e adbc 57fe a7be
00000060: 2daf be3e 2666 56bf cb22 89bd 610d 97be
00000070: 96a1 7a3e 955b 983e 2ca0 fdbd b09c 093f
00000080: de70 013f d491 d0bc edef 05bf ab5e 82be
00000090: 757a 923d 5a9a bd3b e3eb 3cbe b1ba e73e
000000a0: 9453 aa3e ea1b 733e 046d e2be a96f 733e
000000b0: ee0b b73d d91f 4abd 645a 3cbc f7ae 21bf
000000c0: 5627 b13d e0b7 21ba 1c28 8bbe 44ed febe
000000d0: 71e5 973e a9e9 13bf 38f4 adbe 632e 013e
000000e0: 3b38 3c3f de21 9dbe fc82 b23e f506 34bc
000000f0: ca0e f43d 1f86 8a3e a652 74be 6f86 933c
00000100: 2a10 86bf c6c6 e03d be76 05be adc9 4abf
00000110: e68e 733f 3735 8fbe 394b 9abe 1626 c0bf
00000120: 7fd0 8a3f e6af b83e 9ed5 723e 47bb 25bf
00000130: 3ad9 e93d 3cb3 11bf 344b 5c3f 60fb f4be
00000140: e88a bdbf ab5e 9f3f 6876 5bbf ed62 8cbe
00000150: 7d33 4140 7e4b 53be 8551 1a3f f39c 3240
00000160: 1064 85bf 5e01 82be 4045 c73f a405 673f
00000170: 1b08 0840 f7fc e9bf 7bc1 db3e 76de e5bd
00000180: 776d d43f 488d b53d 1109 41bf b276 273f
00000190: c33e 20bf 30ab 7b3f 279e 233f e7b8 4ebf
000001a0: 2b2b 92bf a56d 9abf d11c 08bf cd3f 4ebf
000001b0: fa6d 3bbc 7b81 92bf f109 9fbe da71 923d
000001c0: 7387 16bf 53d2 d9be 8a70 30be f192 0abe
000001d0: dc20 7bbf 0573 cf3f 30e4 a63f a933 08bf
000001e0: a894 8e3f e60e a3be e390 de3e 7eab 8abe
000001f0: 05b4 f4be d1b9 2b3f 7e50 87be a2ed 4ebf
00000200: c264 2fbf 210f 6e3e 803a 7f3e 4541 073f
00000210: 804b 253e e540 d33d fbce 8d3e b089 1dbf
00000220: 8b87 ad3e 3130 853f 0e86 42bf 3bf3 163f
00000230: 675a e8be cc98 b23e a98d 6e3e 6108 c43e
00000240: 6937 9abe 3ef1 713e cab7 183f a505 cf3f
00000250: e9b5 863d 3893 0bbf c53f c9be df19 aabe
00000260: f48e a4bc 4746 163d 483e 883b 3a83 f6be
00000270: f08f 90be 430e 9f3e 258a e83d c0ed aa3e
00000280: 0f6f 9f3e 79fb 8e3e 6a7d a7be 47cb d03e
00000290: 4231 eb3d a8cc 443e fa8f b63e 6bbf 823d
000002a0: 7a97 023e 1791 debd e224 993e 7767 c83d
000002b0: ef9e 903e 55ca 0fbe 740d 8a3e 87d5 1cbe
000002c0: 0a08 5b3e 4709 003e 4aaf 38bd 0dc8 b93d
000002d0: e640 2abe cb3e 8c3e 135f 1cbf a6c8 51be
000002e0: 4607 a63c 978e c0be e652 79be d077 323e
000002f0: 4cb7 643e f149 bcbd 10ec 903e 3775 55be
00000300: 7a32 c83e 8716 463e b609 5b3e 7105 dc3e
00000310: 8b00 4f3e a7ff 65be ed58 1f3f 52d4 35bf
00000320: cec4 ff3e ddd4 273f 62f4 5e3f 6fe5 0cbe
00000330: 56a2 403f c4fd 653f 6f40 d1be 35e6 22bf
00000340: 03cf b5bf ad87 0abe 68a5 d03d 245f 3abe
00000350: 4e0c 883e 26ba 003e 638a 89be 055d b73e
00000360: 89d1 32bf 901b ddbb 19a0 69bf 753a 08be
00000370: 85ec 90be 7f7a 7fbe c0cb bd3d 1ecd 50bf
00000380: c1a1 99bf 1b14 683e 2efc ec3f 2b3f 063e
00000390: b374 89be 5af2 083f 6460 26bf 3f65 b43e
000003a0: fc55 cb3f 4355 e8bf 3462 36bf eca5 77bc
000003b0: aaa3 6d3e 0c6c ef3d 46e0 b83f dc46 c23d
000003c0: f5e1 00bf 293f d6be 1e22 4d3f aa50 6fbe
000003d0: 64da 1d3f 7498 b3bf e718 88bf 27ab b63e
000003e0: 9fdf 2cbf daa4 4e3f 648e d1bd b109 b03d
000003f0: ebd4 573f 47b0 243f 0b54 0d3e ca06 e0bd
0.7642022 -0.8992165 0.37775525 -0.12249942 0.9074272 0.10121705 -0.70818365 0.46020725
0.4328852 -0.52625114 0.28456512 -0.02667071 -0.5110087 -0.5528252 -0.5838112 -0.46641544
-0.2928457 0.058465414 0.047210827 0.110884435 0.2386904 -0.24232495 -0.02117068 -0.32811233
0.37243024 -0.83749616 -0.06696089 -0.29502395 0.24475703 0.29757372 -0.12384066 0.5375471
0.50562847 -0.025460161 -0.5231922 -0.2546285 0.07152263 0.0057862224 -0.18449359 0.45259622
0.3326689 0.23741117 -0.44223797 0.23773064 0.08937822 -0.04934678 -0.01149616 -0.631576
0.08650081 -0.0006169062 -0.2717904 -0.49790394 0.29667237 -0.5777841 -0.33975387 0.12615351
0.735233 -0.306899 0.34865558 -0.010987987 0.11916883 0.2705545 -0.23859653 0.018008439
-1.0473683 0.10975413 -0.13033578 -0.7921398 0.9513992 -0.27970287 -0.30135515 -1.5011623
1.0844878 0.360717 0.23714301 -0.6473889 0.11418386 -0.56914115 0.8605225 -0.47848034
-1.4808016 1.2450765 -0.8572755 -0.27419224 3.0187676 -0.20634267 0.6028064 2.7908294
-1.0421162 -0.25391668 1.5568008 0.9024298 2.1254947 -1.8280324 0.4292105 -0.11224072
1.6595906 0.08864838 -0.7540446 0.6541549 -0.62595767 0.98308086 0.63913196 -0.8075089
-1.1419424 -1.2064711 -0.5316897 -0.805661 -0.011439795 -1.1445764 -0.31062272 0.07150622
-0.5880043 -0.42543277 -0.1723043 -0.13532616 -0.98097014 1.6206976 1.3038387 -0.5320383
1.1139116 -0.31847304 0.43469915 -0.27083963 -0.47793594 0.6708041 -0.26428598 -0.8083135
-0.6851312 0.23247959 0.2492466 0.5283397 0.16142082 0.10315112 0.27696976 -0.6153822
0.33892474 1.0405332 -0.759858 0.5896489 -0.45381472 0.348822 0.23296227 0.38287643
-0.301204 0.23627183 0.5965544 1.6173598 0.06577665 -0.54521513 -0.39306465 -0.33222863
-0.020087697 0.036688115 0.004157815 -0.48146993 -0.28234816 0.31065568 0.11354474 0.33384514
0.31139418 0.27926233 -0.3271287 0.40780088 0.114840046 0.19218695 0.3565672 0.06384166
0.12753096 -0.108675174 0.29910952 0.09785359 0.28246257 -0.14042027 0.2696339 -0.15315829
0.21389785 0.12503539 -0.045089044 0.0907136 -0.1662632 0.27391657 -0.6108257 -0.20486698
0.02026714 -0.37608787 -0.2434803 0.17428517 0.22335547 -0.09193791 0.283051 -0.20845495
0.3910101 0.19344531 0.21390423 0.429729 0.20215051 -0.22460805 0.62245065 -0.710271
0.49954838 0.6555918 0.8709165 -0.13759397 0.75247705 0.8984034 -0.4086947 -0.6363252
-1.42038 -0.13528319 0.10187799 -0.18200356 0.26571888 0.1257101 -0.26863393 0.35813156
-0.69850975 -0.0067476705 -0.91259915 -0.1330355 -0.2830545 -0.24949072 0.09267378 -0.81562984
-1.2002488 0.2266392 1.8514459 0.13110034 -0.26846847 0.534948 -0.6499083 0.35233495
1.5885615 -1.815102 -0.71243596 -0.015115242 0.23206964 0.1169053 1.4443443 0.094861716
-0.50344783 -0.41845062 0.80130184 -0.23370615 0.6166136 -1.40309 -1.06326 0.35677454
-0.6752872 0.80720294 -0.10232237 0.085955985 0.8430926 0.6433148 0.13801591 -0.10938795
