model_coeffs/quantizer.tflite (tflite, 329012 bytes, 137 tensors)

transpose f4 [16, 64]
000000 ba 60 ca c0 00 4e 86 c1 75 aa 49 c1 6a c1 fd 3f
       -6.3243074 -16.788086 -12.6041155 1.982465
000010 69 39 09 c0 bc 9f 88 c0 6b 10 7b c1 01 4e 0d c1
       -2.144129 -4.269499 -15.691508 -8.831544
000020 1a fd c8 c0 ef 8b e2 3f 12 c1 6b 40 39 75 10 c0
       -6.280896 1.7698954 3.683659 -2.2571547
000030 d1 e0 73 c1 2c f0 c7 40 d2 24 eb c0 13 24 14 c1
       -15.242387 6.248068 -7.3482447 -9.258807
000040 a4 67 05 40 39 a1 0d c0 cf fa 08 bf a4 0b 08 c0
       2.0844507 -2.2129653 -0.53507704 -2.1257105
000050 d4 1b ce bf 9c b8 c6 40 5f b4 4c 40 90 61 8f 40
       -1.6102242 6.2100353 3.198509 4.4806595
000060 61 c5 15 3f 5b 3f 9b c0 1d ca 8b 40 37 28 5c bf
       0.585043 -4.851484 4.368422 -0.85998863
000070 5d 16 84 c0 88 f9 04 c0 99 7b 59 c0 ac 3a 16 c0
       -4.12773 -2.0777302 -3.3981688 -2.347331
000080 1f 30 b6 bf 47 0f cf bf 68 87 8f bf 21 48 4b c1
       -1.4233435 -1.6176537 -1.1213198 -12.70511
000090 8b 59 2f c0 26 3c db be e5 3f 12 3f a1 a7 c3 bf
       -2.7398403 -0.42819327 0.57128745 -1.5285531
0000a0 ac 31 d5 bf 62 f5 8f c1 3f a2 02 40 a2 cb 1c 40
       -1.6655784 -17.994816 2.0411527 2.4499288
0000b0 f2 ea 2a 3e 46 9d ce c0 80 f0 1c c0 a6 a9 30 c1
       0.16691187 -6.4566984 -2.452179 -11.041418
0000c0 89 4d 47 3f a1 47 88 c0 53 cd 09 c0 f9 aa a9 bf
       0.77852684 -4.258744 -2.153157 -1.3255302
0000d0 2e f0 e3 bf 11 c7 eb c0 cd c5 2b bf 4f 1f e1 3f
       -1.7807672 -7.36805 -0.67098695 1.758768
0000e0 7d 0a 8d bf ed e3 c2 bf 6c 42 5a c1 76 2b 60 3e
       -1.1018826 -1.5225807 -13.641216 0.21891579
0000f0 f8 c4 42 c0 8b a2 08 c0 e5 fa c8 be 35 2b c0 3f
       -3.043272 -2.1349208 -0.39253917 1.5013186
000100 72 84 62 c0 dc 9e 48 c1 53 d7 ed c0 ff a3 13 c0
       -3.5393338 -12.538784 -7.4325347 -2.3068845
000110 a2 22 74 bf 43 44 8f c0 ae d2 62 c1 a3 48 d0 c0
       -0.95365345 -4.4770827 -14.176435 -6.508867
000120 fd 15 61 c0 ca 5a 2a 3f e0 fe 15 3f cd 8e 27 bf
       -3.516967 0.66544783 0.58592033 -0.6545227
000130 f2 60 41 c1 f0 f6 2f 41 03 9c a0 3f 1e 61 e7 c0
       -12.086168 10.997787 1.2547611 -7.230605
000140 b2 5e d7 be 12 cb 26 3d 28 33 4f 3e 29 4f 01 3f
       -0.42064434 0.040721007 0.20234358 0.50511414
000150 f7 6d a8 3e 15 5b 83 3e 00 93 d1 be ce cd fb bd
       0.32896397 0.25655428 -0.40932465 -0.122951135
000160 56 28 1b 3e a8 50 6e bd c9 49 9c be 2f 4f dd bd
       0.15152106 -0.05818239 -0.30525044 -0.10806119
000170 6b 0b 66 3e d6 f6 e5 3c ee 90 cd be 54 97 0b 3e
       0.22465293 0.028071802 -0.40149635 0.13631946
000180 cd 70 d1 3e 4f c9 15 c0 f7 c2 a1 3e 56 e8 7e c1
       0.40906373 -2.340412 0.3159406 -15.931723
000190 21 d8 49 3e ba ad 0a 3f 33 0d 19 40 f7 b0 b4 3f
       0.19711353 0.54171336 2.3914306 1.4116505
0001a0 ea ba dd 40 c4 da 93 c1 fe 29 ba 3f 0e d9 2a bf
       6.9290667 -18.48182 1.4544065 -0.6673745
0001b0 7a 17 40 3f 56 88 3f c1 51 15 63 c0 46 fc 6b c1
       0.7503582 -11.970785 -3.548176 -14.74909
0001c0 65 81 d2 3e 61 a0 b3 3f 4d eb ae bf 8a 02 20 bf
       0.41114345 1.4033319 -1.3665558 -0.62503874
0001d0 d6 74 c5 be 75 54 8f c1 d0 09 be bf a5 05 98 3f
       -0.385657 -17.916239 -1.4846745 1.1876723
0001e0 95 87 9b 3f 51 36 a2 3e 70 08 ba c1 95 04 47 c1
       1.2150751 0.31682065 -23.25412 -12.438619
0001f0 14 98 eb 3f 22 9d 6f 40 a4 6d 9e c0 43 44 a0 c0
       1.8405786 3.7439656 -4.950884 -5.0083327
000200 44 79 04 c0 90 ab 07 c1 65 98 3b c0 f4 65 ac bf
       -2.0699015 -8.479385 -2.9311764 -1.3468614
000210 4b a0 45 bf 86 5f b3 c0 5f 18 19 c1 d5 a7 03 c0
       -0.7719771 -5.6054106 -9.56845 -2.0571187
000220 7f 22 02 c0 98 3e 1c be bf 55 a4 3e 11 18 89 3f
       -2.0333555 -0.15258253 0.3209667 1.071047
000230 4f f9 29 c1 75 f5 08 41 f1 e4 af 3f ef 53 67 c0
       -10.623366 8.559926 1.3741742 -3.614498
000240 dc cd b7 be f8 e1 7f 3c 6e 7e f4 3d 57 c4 1a 3f
       -0.35899246 0.01561784 0.11938177 0.6045584
000250 be 32 9d 3e 13 58 2e 3e e0 1a c9 be ae b5 f6 bd
       0.30702776 0.17025785 -0.39278316 -0.120463714
000260 ae 17 06 3e ad 1a 07 be ea 19 41 be 28 25 69 bc
       0.1309497 -0.1319377 -0.18857542 -0.01423005
000270 9a c4 33 3e 16 e2 04 be 0d 07 b2 be 25 c4 7c 3e
       0.17555466 -0.1297687 -0.34771004 0.24684198
000280 30 74 40 3d 58 f0 b0 bf 72 9b 70 3e 4f a4 1a c1
       0.046985805 -1.3823347 0.23496798 -9.665114
000290 12 61 41 bf 88 06 97 bd f4 ff 39 3f a9 9d a5 3e
       -0.7553874 -0.073742926 0.7265618 0.32346848
0002a0 53 98 69 40 be 69 61 c1 7c cf 65 3f e3 76 5f bf
       3.6499221 -14.088316 0.8976972 -0.8729078
0002b0 f7 f8 ab 3e 48 48 a7 c0 40 bb 01 c0 2f 93 25 c1
       0.33588383 -5.2275734 -2.0270538 -10.3484335
0002c0 c0 80 25 3f 8a f1 7f bf 82 38 23 bf c0 53 c8 bd
       0.6464958 -0.99977934 -0.637581 -0.09781599
0002d0 19 c0 1d bf 54 68 53 c1 72 db 61 bf ef e5 af 3f
       -0.6162124 -13.212971 -0.8822547 1.3742045
0002e0 9d 01 9e be 00 e5 01 be 0b 89 87 c1 6a a6 af c0
       -0.30860606 -0.12685013 -16.941916 -5.489064
0002f0 91 ba 59 be b2 1e d2 3e 4c ab 28 3e d9 75 19 c0
       -0.21262576 0.41039044 0.16471595 -2.3978179
000300 b8 1d bc c0 37 d8 87 c1 49 89 19 c1 08 3a df bf
       -5.878628 -16.980574 -9.596017 -1.7439585
000310 29 c4 32 c0 82 c5 ec bf 20 95 7f c1 8f 75 55 c1
       -2.7932227 -1.8497775 -15.973907 -13.341201
000320 a8 12 c7 3f d3 a6 98 c0 80 92 c6 3f d7 db a9 3e
       1.5552568 -4.7703643 1.5513458 0.33175537
000330 ed c2 84 c1 19 2e 4e 40 c4 48 1c c0 1b 8b 15 c1
       -16.595179 3.2215636 -2.4419413 -9.346461
000340 bf ed 22 bf ab 75 9a c0 97 80 a6 bf 8b 02 c8 40
       -0.6364402 -4.826864 -1.3007993 6.2503104
000350 90 d8 91 c0 75 05 28 c0 0e a7 e4 40 a1 3d 20 40
       -4.557686 -2.625333 7.1453924 2.5037615
000360 5b 64 db 3f 94 7e f5 3f 69 5b e9 c0 93 ae 8c 40
       1.7140001 1.9179254 -7.2924085 4.3963103
000370 7f 7d 72 40 2f b8 05 c0 49 5f ad 3f a7 db 43 bf
       3.7889097 -2.0893667 1.3544704 -0.7650704
000380 49 3e 5b bf a4 38 dc bf d6 a7 0a be 7b ab 3a c1
       -0.85641915 -1.7204785 -0.13540587 -11.666865
000390 72 83 f8 bf 16 8d 26 be 5f 29 1f 3f 8c 5e 86 bf
       -1.9415114 -0.16264758 0.621725 -1.0497603
0003a0 f0 2a cf be c8 78 87 c1 3e 80 c0 3f 19 d1 be 3f
       -0.40462446 -16.933975 1.5039136 1.4907562
0003b0 cb bd 36 be 6f d7 c8 c0 bb 6c 0a c0 be ec 2b c1
       -0.17845838 -6.276298 -2.1628864 -10.745298
0003c0 b6 94 3b 3f e3 06 67 c0 4b 4c ef bf c0 4f db bf
       0.7327379 -3.6097953 -1.8695158 -1.7133713
0003d0 54 a1 c8 bf 9d 71 d3 c0 63 a7 d6 3d 85 4a af 3e
       -1.5674233 -6.607619 0.10481145 0.3423654
0003e0 ac 27 5a be 13 bd b6 bf 15 7d 52 c1 4e 49 c5 3e
       -0.21304196 -1.4276451 -13.155538 0.3853249
0003f0 ff 83 34 c0 7e ed 94 bf 65 6f 13 be 9d 0a 8f 3f
       -2.8205564 -1.1634977 -0.14397962 1.1175114

transpose_9 f4 [16, 64]
000000 e3 2f 18 3f 65 2d ac bf 32 ae 2e bf 0d 0c 48 bf
       0.5944807 -1.3451353 -0.6823455 -0.7814339
000010 ba e8 8f 3d d1 86 89 be 10 2a 84 bf b3 fd 9b bf
       0.07026811 -0.2686067 -1.0325336 -1.2186798
000020 53 e1 22 bf 67 21 79 3f 39 79 0e 3f 6c ee 0e 3e
       -0.6362507 0.9731659 0.5565372 0.13958138
000030 3e 5c f1 3e 30 24 f5 be a0 f4 58 3f e2 89 7e bf
       0.47140688 -0.4787917 0.8474827 -0.9942914
000040 86 14 6c bf f4 7d dc be 19 1b 25 bd d9 71 5b 3f
       -0.92218816 -0.43064845 -0.040309045 0.8572059
000050 79 b3 c9 3e 6c 0e f2 3e 4b 30 04 3f a0 6e d7 be
       0.3939474 0.47276628 0.5163619 -0.42076588
000060 7e 3b 07 3f 99 1e 77 3e 8e 72 10 bf 81 71 b3 3e
       0.5282515 0.24132766 -0.56424797 0.35047534
000070 09 33 31 3e 24 1a a2 3d 79 80 6e 3d eb 0b 52 3f
       0.17304625 0.07915142 0.05822799 0.82049435
000080 51 b2 85 be 6a fb 24 3f bf 74 5b bf a4 ce 9d 3f
       -0.26112607 0.6444613 -0.85725015 1.2328687
000090 05 59 f2 3e e6 6d 76 bf 42 87 29 3f 3e 55 00 3f
       0.47333542 -0.9626144 0.6622201 0.5013007
0000a0 cf 3b 87 bf 6b a0 ed 3e 8f 0b 03 3f 8a 9e ed 3e
       -1.0565127 0.46411452 0.5118951 0.46410018
0000b0 fb 88 c4 bd 5d dc 07 40 31 43 93 be 1e e2 46 be
       -0.095964395 2.122825 -0.287622 -0.19422194
0000c0 b4 e9 e8 be c1 a1 2a 3f 71 08 af 3e 02 f5 7d 3f
       -0.454908 0.66653067 0.34186128 0.9920198
0000d0 4f 26 00 3d 3d f1 85 be 3c c6 4c be 28 10 93 bf
       0.031286534 -0.26160613 -0.19997495 -1.1489305
0000e0 21 fe 8a 3f 91 fc c7 bf a5 2f dd 3d 30 1e 0e 3d
       1.0858804 -1.5623952 0.10800103 0.034696758
0000f0 74 8e 52 3f 36 76 65 bf ce 93 d8 be f7 ea 16 bf
       0.82248616 -0.896335 -0.42300266 -0.5895228
000100 bc 04 13 bf 85 29 52 bf e5 d7 87 be fc 13 39 3f
       -0.574291 -0.82094604 -0.26531902 0.7229612
000110 23 ed 7b 3e 31 cd c3 be b2 77 63 bf b6 2f 2f 3f
       0.24602179 -0.38242486 -0.88854516 0.68432176
000120 b4 86 c8 3e 88 76 05 bf fe 23 f2 3e 48 30 a4 bd
       0.3916527 -0.5213399 0.47293085 -0.080170214
000130 dc 90 b5 3e 7c 8f d6 bf a9 fd 1b c0 3e 25 48 be
       0.3546208 -1.6762538 -2.4373572 -0.19545457
000140 d0 37 d4 3e d1 06 40 be 4c 49 2a 3f a1 3b fe 3d
       0.41448832 -0.187526 0.6651809 0.12413717
000150 3e a3 d2 3e 00 cf 47 3e 6d 54 29 be 6d f2 08 bf
       0.4114017 0.19512558 -0.16536112 -0.5349491
000160 74 ba 4a be 32 54 93 bc cf 62 04 be 9a d6 77 be
       -0.19797689 -0.017984483 -0.12928317 -0.24202958
000170 3c 5b cd bd 55 e2 e4 3e 03 fc 10 3f ec 27 60 be
       -0.10027167 0.44703928 0.5663454 -0.21890229
000180 3a 61 72 3f 9f 1f 4b bf 93 19 42 be 11 e5 8b 3e
       0.94679606 -0.79345125 -0.18955068 0.273232
000190 af 36 ac be 20 0d 03 bf 8b 34 9e bf 89 4f a3 3f
       -0.3363547 -0.511919 -1.2359785 1.2758647
0001a0 55 88 7f bf 24 49 94 bf 6f b7 4a 3e 1b de 45 bf
       -0.998174 -1.1584821 0.19796537 -0.7729203
0001b0 af b1 56 be eb 6c 35 3f dc b3 d6 3f 77 59 85 bf
       -0.20966218 0.7086932 1.6773639 -1.0417928
0001c0 c2 4f d3 bd d5 c9 01 3f fd 7a f4 be 07 a4 55 3f
       -0.10317947 0.50698596 -0.47750083 0.8345341
0001d0 c5 fc e5 3d 4e 1b 30 be eb 40 08 c0 97 77 8b 40
       0.112298526 -0.17197916 -2.1289623 4.3583484
0001e0 7a c3 e7 bf 35 97 32 bf df 85 96 3f a5 e1 b6 bf
       -1.810653 -0.69761974 1.1759604 -1.4287611
0001f0 eb a3 9e 3e 41 99 21 c0 19 87 0b c0 b8 d4 bd 3f
       0.30984434 -2.5249789 -2.1801207 1.4830542
000200 e3 c0 81 3f d1 bc 97 3f 55 d3 e7 be 81 e2 9d bf
       1.0136989 1.1854497 -0.4527842 -1.2334749
000210 2b 92 98 3e e7 da 34 3f 18 7b fa 3e f0 20 00 be
       0.29799017 0.7064652 0.48922038 -0.12512565
000220 4b 76 9a bf 91 a6 37 bf be a7 28 bd 56 3d ac be
       -1.206735 -0.71738535 -0.041175596 -0.33640546
000230 b1 dd 5c 3e e0 ec 29 3f 79 6f 12 bf 55 91 6b bf
       0.21568944 0.6637707 -0.57201344 -0.92018634
000240 9d d7 c7 3f 21 6f dd bf 6b 6c be be 0b 20 1d c0
       1.5612675 -1.7299539 -0.3719209 -2.4550807
000250 59 32 26 3f 57 ab 02 c0 87 d4 d7 bf 88 0b 29 c0
       0.64920574 -2.0417078 -1.6861733 -2.6413288
000260 49 c1 d4 3f 87 6f 9d bf f3 29 85 bf 38 dd 2c c0
       1.6621486 -1.229966 -1.0403427 -2.7010021
000270 4c 51 5d 40 21 1e 93 bf c3 cb 98 bf a0 e0 86 3e
       3.458087 -1.149357 -1.1937183 0.2634325
000280 bf c9 5f bf 93 d9 9a be 6c d0 ba 3e fd 05 77 bf
       -0.87417215 -0.3024412 0.36487138 -0.9649351
000290 ea a8 e9 3d 1f d8 39 bd 67 c8 95 be 0b 6f 12 be
       0.11409171 -0.045372125 -0.29254457 -0.14300172
0002a0 8c 94 80 bf 22 ac 8b be 70 4f a9 3e 12 fb ad 3e
       -1.0045333 -0.27279764 0.33068419 0.33980614
0002b0 e0 61 39 3b 74 23 47 bd ff a0 9d be de 16 bc bc
       0.0028287098 -0.048617795 -0.30786893 -0.022960123
0002c0 21 b1 5a bd 87 25 8e be 63 11 83 bd 11 7a 88 be
       -0.05339158 -0.27763006 -0.06399801 -0.2665563
0002d0 1b 9f 1f be 38 b7 22 3e 8b 1e a9 3e 69 fa c4 bd
       -0.15588038 0.15890205 0.33031115 -0.096180744
0002e0 7c e0 bc 3d 5c 2b 81 bd 82 47 92 3d 94 0e 26 bd
       0.092225045 -0.06307098 0.07142545 -0.040541247
0002f0 02 f0 69 3c 74 3a b8 3e dc 35 8f 3b bb 59 c9 3d
       0.014278414 0.35982096 0.004370434 0.09831568
000300 17 f8 aa 3e ac 5d df bc 03 78 1a 3e 9b db 5f 3f
       0.33392403 -0.027266346 0.15084843 0.87444466
000310 17 08 11 3f 8a f1 6b 3e f5 52 5b be 54 67 22 3e
       0.5665297 0.23041359 -0.21418364 0.15859729
000320 16 8e 7b 3f 3f 2a 1b 3f e2 1f 8b 3f 35 e7 ef 3e
       0.9826368 0.6061134 1.0869105 0.46856084
000330 76 7f f4 3e 91 12 8b 3e 85 94 27 be e0 3d 34 be
       0.47753495 0.27162603 -0.1636525 -0.17601728
000340 07 c4 90 3f e0 d4 cf 3f f9 5b 8c 3f 02 f4 71 bf
       1.1309823 1.6236839 1.0965568 -0.9451295
000350 b3 d1 85 3f ca 99 e6 be 25 9b 05 3f 25 61 f9 3f
       1.045462 -0.45039207 0.52189857 1.9482771
000360 36 fe 6b be ed 5a d1 bf c0 13 28 3f ab a3 ad bf
       -0.23046193 -1.6355873 0.65655136 -1.3565573
000370 99 56 ba bf d7 8c 12 bf 38 09 9f bf ad e2 85 bd
       -1.4557678 -0.57246155 -1.2424688 -0.065373756
000380 32 d7 f6 3d 70 ad ab 3e 78 85 fa bc 79 fa 01 bf
       0.12052764 0.3353076 -0.030581221 -0.50772816
000390 bd bb 1e be 57 19 9b be 3e c3 90 3c d2 32 42 be
       -0.15501304 -0.3029277 0.017671224 -0.18964699
0003a0 3d a8 cb be 10 d8 84 3e ee a8 d8 3c 0c 57 66 3e
       -0.39776793 0.25946093 0.02644774 0.22494143
0003b0 ff d5 8c 3e 5d d5 24 bf bf 9d ab be 20 de f0 be
       0.27507016 -0.64388067 -0.33518788 -0.47044468
0003c0 22 82 ff be c5 e3 14 bf bb f1 51 3e 7a 42 c8 bd
       -0.4990397 -0.5816005 0.20502369 -0.097783044
0003d0 0d df 90 be 65 c0 08 3f 9e 55 e6 be 87 97 8d 3e
       -0.28295174 0.5341857 -0.44987196 0.2765467
0003e0 20 58 e6 3e aa 1a d9 3d 05 5b 51 3e 29 77 71 3f
       0.4498911 0.10600789 0.20444877 0.9432245
0003f0 4b 71 2f be 55 17 6b bf c1 10 90 3e 82 70 cd 3e
       -0.17133062 -0.91832477 0.28137782 0.401249

transpose_8 f4 [16, 64]
000000 bf e0 0a 3e 5d e5 98 3e ce e7 02 bf 46 2c 08 bf
       0.13562296 0.2986249 -0.51134956 -0.53192556
000010 e6 5a 4b be a9 4b 98 bf 0d bb ba bd 92 79 8a 3e
       -0.19858894 -1.189809 -0.09117708 0.27045876
000020 10 d1 86 3c 25 a0 e2 bd c0 e0 0b 3f b4 01 84 be
       0.01645711 -0.110657014 0.54639816 -0.2578255
000030 5f e6 06 3f 6f dd fd 3d d0 53 b2 3f 57 cc c4 be
       0.5269527 0.12395751 1.3931828 -0.3843715
000040 cf 68 09 be a7 9d 3c be 2e f4 65 bd b4 fa 1c bd
       -0.13418888 -0.18419515 -0.05614107 -0.038325027
000050 46 7f b3 3c 0f 7c 44 be 10 f6 e4 3d e6 46 b9 bd
       0.021911275 -0.1918795 0.11179745 -0.09046726
000060 92 4a 1e 3d 81 88 c6 3d 00 5b 44 ba 3c 19 3f bd
       0.038645335 0.09694005 -0.00074903667 -0.046654925
000070 b6 67 ea 3d 31 94 b2 3d 45 17 4f bc c0 93 cb ba
       0.114455625 0.087196715 -0.012639825 -0.0015531704
000080 d1 9e 81 3f 62 d8 ba c0 51 9f 0f c0 f1 85 88 3f
       1.0126592 -5.838914 -2.244099 1.0665876
000090 2f 9c ac bd ad e4 af bf 1c 10 55 be fb e3 b6 bf
       -0.08428227 -1.3741661 -0.20806926 -1.4288324
0000a0 9f 51 0c bf 5b 1d 31 3f b5 5b 18 c0 dd b3 c6 bf
       -0.54812044 0.6918542 -2.3805974 -1.552364
0000b0 27 52 1e c0 88 dd ac bf 3b 28 86 c0 8c 28 af bf
       -2.4737642 -1.3505106 -4.192411 -1.3684249
0000c0 bf 9b 71 3d a3 25 04 bf 06 9c 25 bf f7 15 93 bf
       0.05898642 -0.5161993 -0.646912 -1.1491078
0000d0 11 ef 82 3f 03 e5 c6 3d f7 e5 9b bf 1e b9 fe be
       1.0229207 0.09711649 -1.2179555 -0.49750608
0000e0 6f 98 ba 3c 47 76 5b 3e 22 d6 d0 3e 0f 35 23 3f
       0.022777764 0.21431838 0.4078837 0.63752836
0000f0 66 d7 c0 3e 73 64 14 bf c6 43 7a bd cd be b0 bf
       0.37664336 -0.57965773 -0.06109979 -1.3808228
000100 d2 bb 4a be 55 be ec 3e 41 eb 20 3c e9 6a 9d be
       -0.1979821 0.46238962 0.009821714 -0.30745628
000110 3d 40 45 bd 96 b9 cf 3e 3a eb 9f 3d 0f 52 55 3e
       -0.048156966 0.40571278 0.07808538 0.20832084
000120 a7 af 34 3f f9 20 18 3f 30 3b 28 be 12 0e 36 3f
       0.70580524 0.5942531 -0.16428828 0.7111522
000130 0d 16 a0 3e 90 48 04 3d f9 b5 97 be 59 31 fa bc
       0.31266823 0.032295763 -0.29631022 -0.030541109
000140 38 56 b6 3d ec c8 b4 bc a5 7d 37 bd 63 00 4a be
       0.08903164 -0.022068463 -0.04479756 -0.1972671
000150 57 66 8a 3e ef a0 95 bd 22 c3 90 be 7f 91 b0 bd
       0.27031204 -0.07306086 -0.28273875 -0.08621501
000160 7a 19 a4 3e 79 4f b7 3d e1 c4 bc 3e 13 59 be bd
       0.32050687 0.08950705 0.36868957 -0.09294333
000170 25 a5 09 bd 85 ab b4 3e 93 82 95 be 7e 60 df bd
       -0.03360476 0.3528711 -0.29201183 -0.10907076
000180 47 bf 37 3f da 96 d8 bd 5d ac 75 3f 2a 9f bd 3d
       0.7177624 -0.10575648 0.9596613 0.09258874
000190 91 d4 85 bf 8e ed 9c 3f c2 e5 b0 bf b8 6d 41 bf
       -1.0455495 1.2259996 -1.3820117 -0.7555804
0001a0 63 92 05 3f 81 33 26 3e 5b 1c 1e bf 01 5b 20 bf
       0.52176493 0.16230585 -0.61762017 -0.6263886
0001b0 43 2c 83 be bd 20 74 bf ae c2 51 3f 54 98 53 3f
       -0.25619707 -0.95362455 0.8193768 0.8265431
0001c0 c4 9e 80 40 1d 9c 74 bd 8b b3 e9 be fe 4e b6 3f
       4.0193806 -0.059719194 -0.45644793 1.4242857
0001d0 37 a9 4b bf 2e ec e1 bf d8 f3 ba 3e 69 90 23 c0
       -0.79555076 -1.7650201 0.36514163 -2.555689
0001e0 94 7d dd 3f 84 c7 5f bf 37 4f de 3f 91 69 84 3c
       1.7303948 -0.8741381 1.7367924 0.01616362
0001f0 b1 55 0d 40 02 3b d8 bf 30 1e 4a bf 08 18 06 40
       2.2083552 -1.6893008 -0.7895231 2.0952168
000200 6d b5 b6 be 5d 46 13 3f 75 f3 e9 3f 8b 42 38 3f
       -0.35685292 0.5752924 1.8277422 0.71976537
000210 b1 fc 1e 3e bc 83 01 be 0d d9 30 bf 8f 90 4c bf
       0.15526082 -0.12647909 -0.69081193 -0.7990808
000220 47 0d 2a bf 51 5a 06 bf df 9a 4f bf 4b ee 9f 3d
       -0.6642651 -0.5248156 -0.8109569 0.07809123
000230 41 79 8f bf a0 97 45 3f 7e 8f d4 bf a0 bb ec bf
       -1.1208879 0.77184486 -1.660629 -1.8494759
000240 22 de 21 bd 1e b8 82 3f 20 b5 57 ba 7b da 17 be
       -0.039518483 1.0212438 -0.0008228589 -0.14829437
000250 59 d5 39 bf 2f 37 84 3c 6f bc 01 be a3 01 4d 3f
       -0.7259117 0.016139595 -0.12669538 0.8008062
000260 6b 5a c5 3e d1 42 a4 3e bb b1 51 be 81 99 ab 3d
       0.38545546 0.32082227 -0.20477955 0.08378888
000270 5e 05 b9 3d b6 f6 2c 3e 82 a0 94 bd 53 18 29 3e
       0.09034227 0.16890988 -0.07257177 0.16513185
000280 e7 ec 29 c0 87 a4 29 c0 e2 c6 fa 3f b4 e7 e1 bd
       -2.6550844 -2.650667 1.9591944 -0.11030522
000290 fb c8 1f bf 8b 8f e2 bd 2c f8 0c c0 ab 11 c1 3f
       -0.62416047 -0.11062535 -2.2026472 1.5083517
0002a0 1b 0c 2a 3f 6b fe df bf 4d a2 42 bf 0c cd f4 bf
       0.6642472 -1.7499517 -0.760289 -1.9125075
0002b0 8f f8 10 40 ae 21 49 40 32 74 6d 3f 5e 5a 2c c0
       2.2651708 3.1426806 0.92755425 -2.6930156
0002c0 fd 6b 80 bd 77 2f 3e 3e ca 18 e7 3d 3f 04 e2 be
       -0.06270597 0.18572794 0.11284025 -0.44143865
0002d0 df 2d b7 be 24 15 6d 3e b5 7a 29 bf b5 e9 ed 3e
       -0.35777184 0.23152596 -0.6620286 0.46467367
0002e0 34 61 69 be a8 34 85 3d dc 44 d1 3d 38 2b e6 bd
       -0.22790986 0.06504184 0.10218212 -0.11238712
0002f0 26 81 99 bc 52 88 f8 be 80 02 13 3a 3a 05 1c be
       -0.01873834 -0.48541504 0.00056079775 -0.15236369
000300 5d 2c 0b 3e 4c d0 31 3e fb 10 a6 3f a5 6d ba bf
       0.13591142 0.17364615 1.2973932 -1.4564711
000310 3e 0d f6 bd 4f 91 05 40 b7 f7 ec be f3 8f b5 3e
       -0.120142445 2.086994 -0.4628274 0.35461387
000320 38 dd 78 be 74 2c df 3f 16 15 66 3d 23 04 49 40
       -0.24303138 1.7435441 0.056172453 3.1408775
000330 44 cf d8 bc 27 42 75 be 12 de 7c 3f 48 ad 0c 40
       -0.02646602 -0.23951016 0.9877635 2.1980762
000340 dc a3 3d be 3e 37 5c be 88 94 67 3e 7a 92 1d be
       -0.18519539 -0.21505448 0.22615254 -0.15387908
000350 6d d5 e7 3e c5 16 3c 3e 9d a9 34 bf a3 88 b8 3e
       0.45280018 0.18368061 -0.7057131 0.36041746
000360 b4 4c 7e 3f 09 4d e3 bd a8 36 d5 3e f2 f4 d9 be
       0.9933579 -0.11098678 0.41643262 -0.4256969
000370 b6 ff bd 3d aa 11 ee be 1c 5a 9a bf 50 78 d0 be
       0.092772886 -0.46497852 -1.2058749 -0.4071679
000380 84 44 ea 3e aa 5a 7a 3e 19 77 43 3e 3c b7 bd 3f
       0.45755398 0.24448648 0.19088401 1.4821544
000390 21 0f 87 3d d9 91 38 3e eb 7c 5c be f2 2b b2 3e
       0.065946825 0.18024386 -0.21532027 0.34799153
0003a0 76 87 4b 3f ec df b4 3e fe 29 28 be 2c ec 4b 3d
       0.7950357 0.3532709 -0.16422269 0.049785778
0003b0 1d 4d 05 bf 1c ab 82 3f b4 e2 09 3f cd 7e 54 3f
       -0.5207079 1.0208468 0.53861547 0.8300598
0003c0 fb 52 ce 3d ce 4f 5b bf e7 2b 38 bd c3 a0 69 bf
       0.10074421 -0.8566865 -0.044963744 -0.9126093
0003d0 b3 32 8b 3d 25 5e 2c 3f 9c 5a 04 3f 9e 78 a9 3f
       0.067967795 0.67331153 0.5170076 1.3239934
0003e0 28 02 cf bf 67 92 0a bf 03 11 aa 3f 74 f5 4c bf
       -1.6172533 -0.5412964 1.3286442 -0.8006203
0003f0 0f c5 be 3e 28 f9 c8 3f 3b 36 19 40 0c 2c 4d bf
       0.3725972 1.5701036 2.393935 -0.80145335

transpose_7 f4 [16, 64]
000000 d6 c2 49 bd 65 83 d5 bd 94 4e 89 3e e1 79 21 3e
       -0.049258076 -0.10425452 0.26817763 0.1576915
000010 63 a9 83 3e d6 99 06 be 4d 95 a3 3e fd ef d8 be
       0.2571517 -0.13144621 0.31949845 -0.42370597
000020 f8 1e 78 bd 07 7a 86 bd e5 c2 f2 bd 25 8f ad bf
       -0.06057641 -0.065662436 -0.118535794 -1.3559309
000030 96 0c ca 3d 74 5f 8a 3f 79 9a 19 3f 32 9b 6a be
       0.09865682 1.081038 0.6000133 -0.22910765
000040 e0 cf fe 3c ea fc 94 3c 4a b2 ed bc 6f 58 2c 3e
       0.031104982 0.018187005 -0.029015679 0.1683061
000050 bc bf c5 3c 88 e3 07 3d 95 63 45 be 57 eb 3e 3d
       0.024139278 0.033175975 -0.19276269 0.046611156
000060 d0 5b 11 3e e7 9d 48 3e 2e f6 e4 3d 21 7c 4d be
       0.1419518 0.19591485 0.111797675 -0.20066883
000070 a6 8d 7f 3e 09 5f 50 be 8c bb 0d be b7 6e 4c be
       0.24956378 -0.20348753 -0.13841075 -0.1996411
000080 87 f1 04 3f 37 f3 9b 3e 44 2e 1c 3f 96 8a 73 c0
       0.5193104 0.30458996 0.61008096 -3.8053336
000090 5c e5 9c bf 0b 71 16 c0 14 21 d4 3f 16 68 d6 3e
       -1.2257495 -2.3506496 1.6572595 0.41876286
0000a0 17 38 1e 40 05 63 24 bf 8f b1 5c c0 b3 44 48 3f
       2.4721735 -0.6421359 -3.4483373 0.78229827
0000b0 94 70 90 bf 56 ea 01 40 85 b6 d6 3f af 6b 83 3f
       -1.1284356 2.0299277 1.677445 1.0267237
0000c0 0f 52 33 3f 98 d9 ef be 51 30 05 3f b5 ae 51 40
       0.70047086 -0.46845698 0.5202685 3.2762883
0000d0 1a 0b 66 3f ac b8 ce 3d e2 60 0f c0 d5 c2 ab 3f
       0.8986069 0.10093817 -2.2402883 1.3418833
0000e0 b4 80 e4 3f 03 fd 84 bd 73 41 32 3f fa 4a f1 3f
       1.7851777 -0.06493571 0.6963112 1.8851006
0000f0 e3 64 91 be db 97 64 40 b3 4a c0 bd 32 b4 db 3e
       -0.28397283 3.5717685 -0.09389248 0.42910916
000100 c0 27 c1 3d 02 59 66 3e cb 97 97 bf 5f 5e 2c be
       0.0943141 0.22494891 -1.1843199 -0.16832875
000110 c0 e5 39 be b6 7c 6d bf b9 bf 38 3e 7f 99 03 3f
       -0.18154049 -0.9276842 0.18041886 0.5140609
000120 97 f2 6b 3e 33 ac 97 bc 85 98 83 3f cc f0 2b bf
       0.2304176 -0.018514728 1.028092 -0.671643
000130 ea 5a 67 3f 21 3e b7 3e 2d 06 b3 3f 9f 2d a3 be
       0.903731 0.35789588 1.398626 -0.31870744
000140 2d 5c 19 3d ab d5 15 be 1d 64 d3 bd 54 3a f0 3d
       0.03744142 -0.14632289 -0.103218295 0.11729875
000150 e6 7a 49 3e 20 c8 d1 bd b9 59 64 be 6a c3 5f bc
       0.19675788 -0.10243249 -0.22299851 -0.01365743
000160 54 95 af 3d 65 3f 85 3e 71 3b 20 3d d1 84 c0 bd
       0.08573404 0.2602493 0.039119188 -0.09400333
000170 73 df fd 3d e4 a4 1d be 17 60 41 3d a3 4d 3b be
       0.12396135 -0.15394932 0.04721078 -0.18291335
000180 43 b7 66 c0 95 ff a6 3f 89 56 c7 3f 2c 68 ed 3f
       -3.6049354 1.3046747 1.5573283 1.8547416
000190 1d 4e 0d bf eb 7f 9c 3e ee 3c 3e bf 14 04 08 3c
       -0.55197316 0.30566344 -0.7431172 0.008301754
0001a0 61 68 26 40 0c c1 ef be 89 f8 48 40 85 a8 09 40
       2.6001208 -0.4682697 3.1401694 2.1509106
0001b0 f4 44 c2 bf fd 32 e3 bf f7 21 19 40 cd ae a1 be
       -1.5177293 -1.7749935 2.392698 -0.31578675
0001c0 c7 44 19 3f 9e 42 42 bf ff f7 9b bf a4 c5 c5 bf
       0.5987057 -0.758829 -1.2185057 -1.545094
0001d0 2f 4f 49 40 66 35 77 be f2 1b 3d c0 13 42 2b bf
       3.145458 -0.24141464 -2.9548306 -0.66897696
0001e0 e9 18 93 3d 43 50 9c 3e ab 69 5a 3f ea 12 cb 3f
       0.071824856 0.30529985 0.85317487 1.5865147
0001f0 67 7b 3b 3f ff 79 91 bf ac 34 18 bf 33 20 06 c0
       0.7323517 -1.1365355 -0.5945537 -2.0957153
000200 61 68 d1 3d ae 28 4c 3f 51 bd 35 3f 52 b1 9d 3e
       0.10224987 0.7974957 0.70992 0.30799347
000210 04 60 61 bd 97 09 4a bf 60 d5 0e be a8 d2 a6 3e
       -0.05502321 -0.7892088 -0.13948584 0.32582593
000220 b7 b0 ac 3e 7c 8a 7a 3e 52 e6 fd 3e a4 11 2e be
       0.33728573 0.2446689 0.49589783 -0.16998917
000230 6a 89 ff be a8 24 99 be 05 21 89 be 6a 89 68 be
       -0.49909526 -0.2991078 -0.26783004 -0.2270867
000240 c9 c0 d3 bf a4 41 5a bf 09 7c 07 40 7f a2 8e 3f
       -1.6543208 -0.8525641 2.1169455 1.114334
000250 18 3d 55 c0 21 ff 1d c0 77 2b 84 bf 22 db a0 bd
       -3.3318539 -2.4686968 -1.0325764 -0.07854296
000260 18 3b 98 bf c2 1a e1 3e 8c 55 5c 3f 2c b6 0e 3d
       -1.1893034 0.43965727 0.86068034 0.0348417
000270 fa 4a b8 bf ff 2e af 3f 26 c0 b2 bf 6d 77 f4 3e
       -1.4397881 1.3686217 -1.3964889 0.47747365
000280 8f 3a 23 bf 50 30 18 bc 27 bc b2 be c3 a9 ad 3d
       -0.6376123 -0.009288862 -0.34909174 0.08479645
000290 16 46 6c 3e fc 04 8b be 37 cb 1c 3c ce c7 84 be
       0.2307361 -0.2715224 0.009569935 -0.2593369
0002a0 ad 4c 4c bf 0f 7a a8 3e 98 f3 1f be 3e ce 00 be
       -0.798045 0.32905623 -0.15620267 -0.12578675
0002b0 b2 4a 35 3e 80 90 b0 3e 94 50 2b 3b da af 0f 3e
       0.17704275 0.34485245 0.0026140558 0.14031926
0002c0 66 40 5b be 63 41 a0 3e 57 e4 99 be 78 0a da 3d
       -0.21411285 0.31299886 -0.30057022 0.10646528
0002d0 65 f0 45 3e 00 fa e9 3e 4f bd 67 3d e8 16 f0 3b
       0.19329984 0.45698547 0.056577023 0.0073269494
0002e0 1a 8b 29 3f 22 49 6f 3e a5 fb 4a 3e 8c 1a 88 3e
       0.6622788 0.23367742 0.19822557 0.26582754
0002f0 cd 2e e3 3e f1 a6 8d be 26 76 f5 3e c4 81 e8 3b
       0.44371644 -0.2766643 0.47941703 0.0070955474
000300 2f 5f 1b bf 03 ca da 3e db 82 b1 be 0c 77 ad 3e
       -0.60692114 0.42732248 -0.34670147 0.33879888
000310 6a dd 07 bd 2f 77 a7 bd 13 82 d6 3e 20 73 8d 3e
       -0.03317014 -0.08177029 0.41896114 0.27626896
000320 ae fb c3 3d 2d 5e 85 be 1d ba 3f 3f 4a 64 39 bf
       0.095694885 -0.26048413 0.7489336 -0.72418654
000330 db f0 d0 3e 1f 25 5e 3f 2d ae e5 3f 30 9f 06 be
       0.40808758 0.8677539 1.7943779 -0.13146663
000340 72 1d dd bd 69 91 b2 3d fa b4 1f 3d 84 86 75 3c
       -0.10796632 0.08719141 0.038990952 0.014985684
000350 29 0c 0b 3e de 0e f7 3b 4c c0 22 be 4e cc 17 3c
       0.13578857 0.007539614 -0.15893668 0.009265019
000360 f0 40 b4 3c aa bf 97 3d 2e 67 ce 3d 35 33 04 be
       0.02200362 0.07409604 0.10078274 -0.12910159
000370 f9 d6 fb 3d 00 69 bd bd 06 87 51 bd 5b e6 9b bd
       0.12296862 -0.09248543 -0.05115416 -0.07612296
000380 b1 17 17 40 85 5d 9b 3f d8 7d 11 3f 16 65 ca bf
       2.360821 1.2137915 0.5683265 -1.5812099
000390 fc d9 21 40 c8 d3 78 40 a2 a2 c8 3e 8d cb ad 3f
       2.5289297 3.887926 0.3918658 1.3577744
0003a0 b5 48 17 bf 80 ae f6 bf d7 91 94 c0 14 82 b8 3f
       -0.5909532 -1.9272003 -4.6428027 1.4414697
0003b0 18 79 0d 3d 0f aa ef 3f fd 5b 5f bf ad 18 a4 be
       0.034539312 1.8723773 -0.8724974 -0.32050076
0003c0 37 9b c0 be bd 39 92 3e eb 42 39 bf f3 2a 1c c0
       -0.3761842 0.28559676 -0.72367734 -2.4401214
0003d0 47 ec 0f 3f 6c 7f af 3e 0e 45 21 3f 55 83 df bf
       0.56219906 0.34276903 0.62995994 -1.7461954
0003e0 d7 a4 9f bf 25 52 e1 3e 3a 97 45 3f a7 d7 35 bf
       -1.247218 0.44007984 0.7718388 -0.71032184
0003f0 0f cd 23 3f 6a 89 4a c0 65 6e b9 bc 00 01 9a bf
       0.6398477 -3.164637 -0.022635648 -1.2031555

transpose_6 f4 [16, 64]
000000 95 b9 2b be fb 7d 88 3e 40 83 6d 3c ab 8b 5f 3e
       -0.16770013 0.26658615 0.0144966245 0.21830623
000010 74 7a 10 bb 47 e1 45 be c2 79 06 3f 60 56 2d 3f
       -0.0022045644 -0.19324218 0.5252954 0.6770992
000020 62 0c a4 3c b9 98 88 be 01 09 8d be 58 77 39 bf
       0.020025436 -0.26679018 -0.27545932 -0.7244773
000030 3a 5c 1c bd 0f 23 eb 3d 7f e4 c3 be 06 61 6d be
       -0.03817389 0.11481296 -0.38260266 -0.23181543
000040 90 07 4a bd e2 f0 49 bc c6 cc fa 3d 84 e5 23 be
       -0.04932362 -0.012325497 0.12246089 -0.16005522
000050 66 60 94 3e 2f 57 7c 3e 11 11 11 bf 7e ea e2 3e
       0.28979796 0.24642633 -0.56666666 0.44319528
000060 c0 0e 6a b9 f9 b2 61 bd 79 ec 92 3e 93 d2 36 bd
       -0.00022321474 -0.055102322 0.2869604 -0.044634413
000070 67 f4 96 3e 0d 2e 84 bd 5f 5e a6 3c 8f ea b7 be
       0.2948334 -0.06454096 0.020308672 -0.35921142
000080 62 ba 17 3d 84 d8 9a bd 11 91 d5 3e b2 e9 02 3e
       0.037042983 -0.07560828 0.4171224 0.1278446
000090 9c 49 05 bf 44 ba cf 3e 5c 10 fc be 6f cb be be
       -0.52065444 0.40571797 -0.4923123 -0.37264583
0000a0 c7 69 47 be cb 75 a8 3e f4 64 28 be 9d 5c 3a be
       -0.19473945 0.3290237 -0.1644476 -0.18199392
0000b0 40 04 b9 3d 1a 29 20 3e 08 1a 0d 3e 3b 67 0e 3f
       0.09034014 0.15640679 0.13779461 0.5562627
0000c0 5b 0a e7 3e e3 26 ca 3e 3b 1e 23 40 bd 37 6e 3f
       0.45125088 0.39482793 2.5487201 0.930538
0000d0 32 b8 9b 3f 8e 90 3e 40 a3 f6 65 3e 6a a6 35 be
       1.2165587 2.977573 0.22457366 -0.17739263
0000e0 f0 26 ab bf 75 c4 0d c0 51 6c 0a c0 87 87 e9 3e
       -1.3371258 -2.2151158 -2.162861 0.45611212
0000f0 ef f2 9d 40 1a 3b 85 be 46 7c 32 3f 82 4c dc be
       4.935905 -0.26021653 0.69720876 -0.4302712
000100 8b b4 17 3f d9 d9 c0 bd 56 1f 92 3f 4a 97 76 3d
       0.5925986 -0.09416551 1.1415813 0.060202874
000110 23 c3 ba bf e0 f5 e8 3e 67 de 31 3e 89 67 96 3e
       -1.4590801 0.45500088 0.17369996 0.29375866
000120 27 b3 89 3f 37 d5 a8 3f 43 a1 68 3f 6b 02 76 bf
       1.0757798 1.3190068 0.90871066 -0.9609744
000130 b7 d5 48 bf 9d 5f d3 bd 93 1e 3a 3f 21 84 68 bf
       -0.784511 -0.10320971 0.727029 -0.9082661
000140 01 0b 73 c0 93 e3 84 3f 79 12 25 c0 cf 51 3b 3f
       -3.7975466 1.038195 -2.5792525 0.73171705
000150 e4 fa 82 bf 90 d9 92 3f 03 aa 50 3f a3 96 4b c0
       -1.0232816 1.1472645 0.8150942 -3.1810691
000160 2d 2a ca bf b6 18 66 bf 13 44 b5 bf 71 83 85 be
       -1.5794121 -0.89881456 -1.41614 -0.26076844
000170 0e 2c e5 3f fe 22 f3 bf 1d 8b 08 c0 09 90 a7 bf
       1.790407 -1.8995054 -2.1334908 -1.3090831
000180 ce 43 48 3e bb 0b 12 be b9 74 83 3e 06 b3 9c 3d
       0.19557115 -0.14262287 0.2567499 0.076513335
000190 39 2d 62 be 53 dd de 3d 52 5f 87 be 2f 1b ec 3d
       -0.22087564 0.10882058 -0.2643991 0.11528622
0001a0 b0 8e ba ba f8 5e e0 3b 78 35 7a bc 40 a4 5b 3a
       -0.0014233198 0.0068472587 -0.015271537 0.0008378662
0001b0 36 e4 1f 3d 51 f8 5c bd e3 56 2d 3e e5 de 20 3e
       0.039036 -0.05394775 0.16927676 0.15710028
0001c0 4a f6 c5 3d 0c 61 02 3f f0 4c 29 3e 8e f3 61 be
       0.096661165 0.5092933 0.16533256 -0.22065565
0001d0 c4 b6 7a 3e 02 7a 7b bf 05 7f b9 3d 9f 46 aa bd
       0.24483782 -0.98233044 0.0905743 -0.08314251
0001e0 a5 a3 55 be ee 85 79 be 56 c6 e2 3b 74 61 0a bf
       -0.20863207 -0.24367496 0.006920616 -0.5405495
0001f0 97 2c 13 3d 69 b9 05 3f a2 b0 b6 3e 7e 62 56 be
       0.035931196 0.5223604 0.35681635 -0.2093601
000200 86 c2 1e 3d f4 02 57 3e f8 85 b4 bc 3a d4 e8 3c
       0.03875973 0.2099722 -0.022036538 0.02842151
000210 7a 58 89 3e 3a b2 85 be 38 1a b4 ba 11 24 c5 3e
       0.26825315 -0.2611254 -0.0013740724 0.3850408
000220 5a ec 06 3e 4f a6 05 3f 6e 83 6a 3e 8e b0 cd bc
       0.13176098 0.5220689 0.22901699 -0.025108602
000230 c9 c1 12 be 59 e6 35 be 54 53 1a be 09 0e 0c bf
       -0.14331736 -0.17763652 -0.1507085 -0.54708916
000240 1f a1 d2 3f 88 46 0b 40 89 e3 89 3f 8d 4e 9f 3e
       1.645542 2.17618 1.0772563 0.31114617
000250 d8 d0 90 3e 6f ee 89 bf 6b 04 26 40 03 6e 1a c0
       0.28284335 -1.0775889 2.5940197 -2.4129646
000260 ee 8f c7 3f 84 ba f0 3f e5 f2 4b 40 98 5c d5 3f
       1.5590799 1.880692 3.1867 1.6668882
000270 85 16 10 bd d4 ae 1f c0 35 56 3c bf 15 23 57 3e
       -0.035177726 -2.4950457 -0.7356904 0.21009476
000280 eb 84 b8 be 82 32 a3 bc f2 1e 45 bd 36 ca a8 be
       -0.36038908 -0.019921545 -0.048125215 -0.32966775
000290 b4 f7 17 be 06 86 70 3d dc 07 b4 bd 10 54 d0 bd
       -0.14840585 0.058721565 -0.087905616 -0.10172284
0002a0 d5 9b 28 bb 39 47 12 bf 30 ec f0 bc e4 7f a7 3b
       -0.0025727649 -0.5713993 -0.029409498 0.0051116813
0002b0 c2 e5 3f bc 49 b7 39 be 46 d8 4a be 0d 89 45 bd
       -0.011712493 -0.18136324 -0.19809064 -0.048226405
0002c0 2d d3 b9 bb cf 5d a2 3d 19 d3 15 bd f9 32 2c be
       -0.005670926 0.07928049 -0.03657827 -0.1681632
0002d0 76 57 02 3c 19 0c 14 bd 1b e7 cf 3d 06 9e 97 3d
       0.007955423 -0.03614435 0.10151502 0.074031875
0002e0 fe ef 33 be 82 e3 b9 be 8d 27 09 3e 5b 02 1c be
       -0.17572019 -0.36306387 0.13393994 -0.15235274
0002f0 ca 48 d3 be ab 40 a1 3e 8c 92 7d 3d f9 7b 26 be
       -0.4126647 0.3149465 0.061907336 -0.1625823
000300 03 fd 64 c0 23 f6 1a 40 7c 3d 09 3f 66 3c cc c0
       -3.5779426 2.421273 0.5360944 -6.382373
000310 1c ae 00 be 62 4f 0b c0 68 85 75 bf af 4f 01 c0
       -0.12566417 -2.1767201 -0.95906687 -2.0204885
000320 e3 06 98 3f d7 42 0e c0 9c 49 e9 be ee fc 4e 3d
       1.1877102 -2.2228296 -0.45563972 0.05053418
000330 c8 3e 93 3f a7 10 2b 3f d8 51 44 bf e6 5d f8 3f
       1.1503534 0.66822284 -0.76687384 1.9403656
000340 a0 9d 06 bd f6 0e f9 3d a4 f5 1d 3f 5d 98 67 3f
       -0.032865167 0.12161057 0.6170294 0.9046686
000350 6d 14 df 3e 49 ae ac 3e 6c 06 c4 3c e1 d8 2f bf
       0.4357027 0.3372672 0.023928843 -0.68690306
000360 51 09 fb be f1 9b 44 3f 4b 6f 92 3d 11 44 84 bf
       -0.49030545 0.7680045 0.07150134 -1.0333272
000370 7c 03 82 be 7a 5c a8 3f 27 6a 48 be ba 51 2d bf
       -0.25393283 1.3153222 -0.19571744 -0.6770283
000380 c2 6d 3c 3d f4 65 4e be fc 6b cd 3c da 4e 5e be
       0.04600311 -0.2015608 0.025075905 -0.21709767
000390 12 72 78 bc 35 8b 44 3e c7 ea c5 be 0a d4 22 3e
       -0.015163915 0.19193728 -0.38655683 0.15901199
0003a0 58 81 b0 bd 6a 51 6c be 12 51 a7 3e 61 9f e0 be
       -0.0861842 -0.23077932 0.3267904 -0.43871596
0003b0 3b d6 d5 be 19 a2 e5 3e b0 b4 61 3e ad 53 b5 3e
       -0.41765007 0.44850233 0.22041583 0.35415402
0003c0 a2 35 be 3c 78 69 c9 3e ee 00 f4 3d 3a be 49 3d
       0.023218933 0.3933828 0.1191424 0.04925368
0003d0 70 3b 71 ba 48 a0 c7 be 3d fe 91 bd 60 b1 76 3c
       -0.0009202277 -0.38989472 -0.0712857 0.015056938
0003e0 bc 79 d3 bd fa fb 65 3d 94 95 9d 3e b7 0d a6 be
       -0.10325953 0.056148507 0.30778182 -0.3243234
0003f0 87 f1 41 3d bb 6b 36 bd d5 7f 9e bd 50 be 1c bd
       0.04734948 -0.044536334 -0.07739226 -0.038267434

transpose_5 f4 [16, 64]
000000 2e d0 9f 3f 6c b7 cf 3e b5 5a ad 3f e0 b2 89 be
       1.2485406 0.40569627 1.3543307 -0.26894283
000010 75 a4 18 3e ae 13 0d 3e 72 86 de 3e 1f 3a c6 3e
       0.14906485 0.13777038 0.4346195 0.38716218
000020 c7 b0 2b be 0e c4 72 be 0e 6a 81 3d 0d 6e a5 3f
       -0.16766654 -0.23707601 0.063190565 1.292421
000030 a1 7a 0d be a5 f9 bd bf 97 5a a2 3e a4 fe d9 3f
       -0.1381631 -1.484181 0.3170974 1.7030835
000040 6d b8 cb 3d 7b 3d 9e 3e 57 fc b2 3d 5d 78 13 3d
       0.09947286 0.3090628 0.08739536 0.03600346
000050 6d c7 86 be f7 2d 5c be 50 b7 91 3e 9a 83 bd be
       -0.26324025 -0.21501909 0.2846017 -0.37014467
000060 ae 7b 7d bd 6e af f7 bd 76 b9 1a bf 7c 1b 93 bd
       -0.06188553 -0.120940074 -0.6043924 -0.071829766
000070 b8 69 84 bd 47 75 31 3e e1 30 c3 3d 45 03 9b 3d
       -0.06465477 0.17329894 0.09530807 0.07568983
000080 e3 a1 a0 3f bf c9 82 be c1 03 b7 3f 55 28 29 bf
       1.2549404 -0.25544545 1.4298021 -0.66077167
000090 b9 ff e6 bf ad ad d0 3f 1a 63 b9 bf 53 5a 68 bf
       -1.804679 1.6303002 -1.4483368 -0.90762824
0000a0 ff 8a a0 3f b6 3c 14 bf fe 31 84 bf 6b 5c c0 bf
       1.2542418 -0.5790514 -1.0327756 -1.5028204
0000b0 2f d1 08 3e 57 51 0d c0 8b cd 50 3f 09 19 3a 3f
       0.13361047 -2.2080896 0.81563634 0.7269445
0000c0 76 e1 75 3f 16 9b fe 3f fe 9f 4b c0 89 1d 10 bf
       0.9604715 1.9891078 -3.1816401 -0.5629507
0000d0 b8 7b 97 bf 19 0f 0b 40 30 c6 88 3b 85 95 41 3f
       -1.1834631 2.1727965 0.0041740164 0.75618774
0000e0 35 7c b0 3f d9 a9 81 c0 42 2c e3 bf 9c e9 58 3f
       1.3787905 -4.0519834 -1.7747881 0.8473146
0000f0 cd e1 bd bf 07 c7 09 bf bd 67 32 3e 8b 65 8b bf
       -1.4834534 -0.53819317 0.17422386 -1.0890363
000100 2f c7 92 3e b7 d1 6b 3e f2 1a 94 be 63 31 80 3e
       0.2866759 0.23029219 -0.28926808 0.2503768
000110 20 e2 a6 3e 8e 3c c2 3e ae 5a fb be 63 db ab be
       0.32594395 0.37936825 -0.4909262 -0.33565816
000120 7a 6c 56 3f fb d0 d0 3e f9 a7 8a 3e ad a0 0e 3f
       0.8375927 0.4078444 0.27081278 0.5571392
000130 72 3e ef bc 00 a3 7a 3e d5 bf ec 3d 08 10 ae bd
       -0.029204581 0.24476242 0.115600266 -0.084991515
000140 ea 61 26 be 03 12 a4 3e 70 15 62 bb 2f 85 84 3e
       -0.16248289 0.32044992 -0.003449764 0.2588286
000150 e5 0a b0 be b7 b3 c1 be b6 59 26 3f 15 ad da be
       -0.34383312 -0.37832424 0.6498064 -0.42710176
000160 2e 4a 88 be 89 2b 16 bd b9 29 df be 71 00 8a 3d
       -0.26619095 -0.036662612 -0.4358652 0.067383654
000170 a3 18 95 bd f0 de 74 3b a1 ac 7f 3e 1e 58 3c 3e
       -0.0728009 0.0037364326 0.24968196 0.18392989
000180 79 a1 93 3e d4 55 96 be d2 6a c4 3e e3 c0 c6 bf
       0.2883413 -0.29362357 0.38362747 -1.5527614
000190 6a 92 d1 bd 98 fd f8 3e f0 6e 32 be df 1f 83 be
       -0.102330044 0.48630977 -0.17425132 -0.25610253
0001a0 bb 86 17 3f 4b 86 67 bf cc a2 67 bc 71 a9 91 bd
       0.5918996 -0.9043929 -0.014137935 -0.071123965
0001b0 41 91 10 3d e6 ab 01 c0 5d 75 00 be ac 53 14 bf
       0.035294775 -2.0261168 -0.1254477 -0.57940173
0001c0 2f ad 83 bf d7 34 dc bf ca a6 82 40 1f 0f f6 3f
       -1.0287226 -1.7203625 4.08286 1.9223365
0001d0 21 0f 0f 3e 77 9e ad 3d fa 26 7e be c9 92 21 c0
       0.13970615 0.084774904 -0.24819556 -2.524584
0001e0 52 1a 0e 40 65 a2 1c 40 20 e4 85 bf 0d 50 b9 3f
       2.2203565 2.4474118 -1.0460243 1.4477555
0001f0 63 42 66 be 69 5d 44 c0 ff 60 a1 c0 98 cb 32 3f
       -0.22486262 -3.0682013 -5.0430903 0.6984191
000200 c0 ec 7f bc bb 67 ed 3e f1 27 12 3e 5b cd 57 bf
       -0.01562041 0.46368203 0.14273049 -0.8429772
000210 0d 79 d9 bf 73 1a f1 be 85 91 0b bf 36 ca c3 be
       -1.6990067 -0.47090492 -0.5451892 -0.38240212
000220 33 7a 20 3f 2a a2 dd 3f c9 4b 40 3f fd d4 a9 be
       0.6268646 1.7315114 0.7511564 -0.3317031
000230 e9 79 6a bf f3 70 13 3f 11 ee 22 3f f3 5b 20 be
       -0.9159227 0.5759422 0.6364451 -0.15660076
000240 55 27 09 bf fc 4d 03 bf 1b 21 86 c0 63 0a 72 bf
       -0.5357564 -0.5129087 -4.191541 -0.945471
000250 12 c1 66 40 e4 11 3e bf 0d 1b 47 3e ea ba 02 40
       3.605534 -0.7424605 0.19443913 2.0426583
000260 b4 95 15 c0 5f 2f 5b 40 3c a4 78 3f 52 2b 8a bf
       -2.3372622 3.4247663 0.971256 -1.079447
000270 0b f6 31 c0 53 0a 2a c0 ab 67 0c 3f 53 e5 d1 be
       -2.7806423 -2.6568801 0.54845685 -0.40995273
000280 24 c4 fc 3c d5 f7 17 3d ec b7 35 3e 4e 91 36 be
       0.030855246 0.037101585 0.17745942 -0.17828867
000290 58 fb 8c bb 1d 87 54 be a5 b0 e5 bd 91 c4 5e 3e
       -0.0043024234 -0.20754667 -0.11215333 0.21754672
0002a0 c0 01 87 3e 97 b0 75 bd 20 01 3d bc d1 e7 2e be
       0.26368523 -0.059982862 -0.011535913 -0.17080618
0002b0 36 08 25 bd d2 1b cb bd 7e 85 ff bd 5a 1e ab be
       -0.040291034 -0.09917416 -0.124766335 -0.33421594
0002c0 b0 57 05 3e 6b de 81 3e c7 93 30 be 15 50 5a be
       0.13021731 0.25365004 -0.17243873 -0.21319611
0002d0 45 d4 97 bd 8d 56 08 be 58 da d1 3d 60 15 74 bd
       -0.07413534 -0.13314267 0.10246724 -0.059590697
0002e0 cc 98 56 3d ad f7 0c be 48 b1 67 3d a8 4f 8f bd
       0.052391812 -0.13766356 0.056565553 -0.06997615
0002f0 26 fe 72 3e da 72 bf 3d ca dc 89 3e 2d 29 45 3e
       0.23729762 0.09348078 0.2692626 0.19253989
000300 1a b1 65 3e 3d 55 25 3f 78 05 80 bf 44 ee 63 3f
       0.2243084 0.6458319 -1.0001669 0.8903544
000310 58 f3 1b 3d e7 df e1 bf 33 04 90 3f 50 1f 7d be
       0.038073868 -1.7646455 1.1251281 -0.24718976
000320 67 06 33 3e 3c c9 e9 bf 4d cf 0e bf 15 56 cf bf
       0.17482911 -1.8264537 -0.55785066 -1.6198145
000330 94 80 0e 3f ce 62 f4 bd d6 da 61 be 26 fc ad bf
       0.55664945 -0.11932908 -0.22056136 -1.3592575
000340 60 34 af be 51 10 dc 3e d6 b0 ec be dd 03 11 be
       -0.34219646 0.42981198 -0.46228665 -0.1416163
000350 93 d9 84 bf 88 d5 05 3d 16 15 7c 3f 87 a6 63 be
       -1.0378898 0.032674342 0.98469675 -0.22231494
000360 c8 b7 10 be 82 3f 44 bf 74 01 b7 be 6d 7c af be
       -0.14132607 -0.76659405 -0.35743296 -0.34274617
000370 19 76 7c 3c 25 fd c3 3e 41 07 cc 3e 8d 3b a5 be
       0.015409016 0.3827907 0.39849284 -0.32271996
000380 85 21 15 3d a8 ed c5 be 67 99 0d 3f c0 a1 9f bf
       0.03640892 -0.3865788 0.553122 -1.2471237
000390 bf e8 cd 3d 0a aa fd 3d 2d dd b8 3d b3 fc 0c bf
       0.100541584 0.12385948 0.09026561 -0.5507309
0003a0 e8 64 4e bf d4 dc a4 3d fd 76 1e 3f 10 1f 1d 3f
       -0.8062272 0.08049932 0.6190031 0.6137552
0003b0 5b 62 d9 bd cd ec b0 be 06 94 1e bd f4 4f 8c be
       -0.10614463 -0.34555665 -0.038715385 -0.2740475
0003c0 70 35 3f 3e 67 eb ac 3e 6e c8 30 bf 80 6c 7e be
       0.18672729 0.33773348 -0.6905583 -0.24846077
0003d0 53 8f 98 be cd 57 67 be 40 a7 dd bd 6c a1 7a be
       -0.29796848 -0.22592087 -0.10822916 -0.2447564
0003e0 bc c6 06 bc b6 d3 dc 3d c8 a2 8b 3d 3d 7f 81 3f
       -0.008226093 0.10782568 0.068181574 1.0116955
0003f0 b2 f2 0a bf 54 01 8b be 41 a1 80 be 75 d3 8d 3f
       -0.54276574 -0.2714945 -0.25123027 1.1080157

transpose_4 f4 [16, 64]
000000 f3 12 b9 3e 1d d5 a1 3e ca 2b 71 3e 0f 9b 36 be
       0.3614727 0.31607905 0.2355186 -0.17832588
000010 aa 20 6b 3e c8 03 c5 be 2b f0 a0 3e 55 a9 75 3f
       0.22961679 -0.38479447 0.31433234 0.95961505
000020 37 77 4b 3e 4d ce 3a 3f 5f da f3 3e 19 05 2f bf
       0.19869696 0.7297104 0.4762754 -0.68367153
000030 5f 81 08 3f 7b e9 cc 3e 08 e7 42 be 22 f9 b6 3e
       0.53322405 0.4002188 -0.19033444 0.35736948
000040 25 e5 97 3f 01 1b 30 3f cd 2e 60 be c8 72 05 40
       1.1866804 0.68791205 -0.21892853 2.0851307
000050 b8 f3 a2 bc fb 1c b3 bf eb ce dc bf 2b 92 68 bf
       -0.019891605 -1.3993219 -1.7250646 -0.90848035
000060 22 1b b2 be a6 9f 5d 3e 32 1d 05 c0 ce cd 65 3f
       -0.34786326 0.21642932 -2.079907 0.8976716
000070 69 cc d0 be 63 fd d1 bf 46 1f 14 3e 00 43 7d 3f
       -0.40780953 -1.6405452 0.14465055 0.9893036
000080 74 f8 9c 3d 68 ea 1a 3d c4 f8 f0 3c 23 ac 71 3f
       0.07664576 0.037821203 0.029415496 0.94403285
000090 61 b2 af be 9d 84 ff 3d 4f 73 80 bd 9d fe 89 be
       -0.3431578 0.12476466 -0.06271993 -0.26952067
0000a0 41 6c 0d be 6f e4 1d 3f e9 ac 44 be 8c f1 c0 bc
       -0.13810827 0.61676687 -0.19206585 -0.023552679
0000b0 ba 09 d0 bc e9 a3 89 3f 56 e2 02 3e ce 76 05 3f
       -0.025395263 1.0753146 0.12781653 0.52134407
0000c0 38 c0 a6 bd 53 31 dd 3e 26 76 c5 3e 4e a7 d6 3e
       -0.081421316 0.43201694 0.38566703 0.41924518
0000d0 33 35 74 bc 35 6f 28 3f 8a 68 28 bd 1b 1f 2a bf
       -0.014905262 0.6579469 -0.04111532 -0.66453713
0000e0 8b 7d 83 3d 76 95 97 be 15 3b 4d 3f 5e 89 db 3f
       0.0642043 -0.29606217 0.8016828 1.7151296
0000f0 16 01 38 bf 8a bd 7c bf 60 f8 88 3e ac f1 2b 3f
       -0.71876657 -0.98726714 0.26751995 0.67165637
000100 5c 0e 44 c0 b1 e7 c2 3e d9 ba 1a c0 06 70 7b 3f
       -3.0633764 0.38067392 -2.4176543 0.9821781
000110 35 cd d1 3f 3a b0 d4 3f fd 58 38 c0 4c c3 8f 40
       1.6390749 1.661628 -2.8804314 4.49259
000120 be c0 03 bf 87 a5 92 bf 9d d5 92 c0 b9 d3 92 bf
       -0.51465976 -1.1456765 -4.588576 -1.1470863
000130 80 97 e8 bf af fa 7d c0 8f d3 24 40 2f a8 5d bf
       -1.8171234 -3.9684255 2.5754125 -0.8658475
000140 00 f8 a2 be c7 ef 4b 3e ad 67 85 3f b1 92 72 3f
       -0.31829834 0.19915687 1.0422264 0.94755083
000150 37 d2 34 3f 64 2b f7 bc 06 ef 94 bf f6 2c 18 bf
       0.7063326 -0.030172057 -1.1635444 -0.59443605
000160 b9 a1 c7 be 68 d4 ce be e7 72 86 3f 51 db 1f bf
       -0.38990572 -0.40396428 1.0503815 -0.62444025
000170 b6 4c 35 3e 05 a0 de 3e e3 4f 3c 3f 91 4a 56 be
       0.17705044 0.4348146 0.735594 -0.20926882
000180 36 c8 73 bf 61 af 9d bf d1 3b 9a 3e ad 89 45 bf
       -0.9522737 -1.2319146 0.3012376 -0.771632
000190 6e 26 be be 0b 5f 36 3f dd 67 a4 be ba dd 89 3d
       -0.37138695 0.71238774 -0.3211049 0.06731744
0001a0 a2 8c 63 be 71 fd df be c5 84 46 3f e1 9c 02 3e
       -0.22221616 -0.43748048 0.7754634 0.12755157
0001b0 6c 02 73 3e af a6 9e 3f fe f4 f8 be a9 c2 6c 3f
       0.23731393 1.2394618 -0.48624414 0.9248453
0001c0 32 b1 5d be 5d 86 50 3e 05 28 24 be da a5 1b 3e
       -0.21649626 0.20363756 -0.16030891 0.15199986
0001d0 a4 34 50 3e 1d 01 8a be ee 45 fe bb f7 08 ac bd
       0.20332581 -0.26953974 -0.007759801 -0.084001474
0001e0 78 1e d3 3b 9b 23 7a be 1f 25 11 bf f9 c3 b1 3e
       0.006442841 -0.24427645 -0.5669727 0.34719828
0001f0 06 78 6d be 90 dc c3 bd 17 a0 13 3e cb 98 1f 3e
       -0.23190317 -0.09563553 0.14416538 0.1558563
000200 53 79 e8 3f 6e c5 47 bf e2 2d d8 bf 06 4f 5f be
       1.8162025 -0.7803563 -1.6889002 -0.21807489
000210 0f db 18 3f e1 0d 86 3f 60 c7 b0 bf 9d eb 69 3f
       0.59709257 1.0472986 -1.3810844 0.9137514
000220 63 0c 9c 3f 1b 18 10 bf 1e 43 67 3f 82 e1 c0 bf
       1.219128 -0.5628678 0.9033679 -1.506882
000230 73 39 1c 3f 2b f6 e5 3e ef ee 91 bf 99 32 3f 40
       0.6102516 0.44914374 -1.1401042 2.9874632
000240 cb d0 12 be e9 ce 36 be a9 b2 99 be cd ae 92 3e
       -0.1433746 -0.17852367 -0.3001912 0.28648987
000250 dd 11 ab be 11 01 1e be 3b d3 90 be ce 3d 71 be
       -0.33412066 -0.15430094 -0.28286156 -0.23558733
000260 80 56 3c be 6f 0b 9c bc 12 fe 19 3d 7a 52 88 bd
       -0.18392372 -0.01904842 0.037595816 -0.06656356
000270 84 c7 66 bd cd c6 62 bd bf c8 a6 3d 5e d6 2d be
       -0.056342617 -0.055365372 0.08143758 -0.16976306
000280 2a f2 00 c0 54 6a df 3f a8 41 0c 3f db f7 d8 be
       -2.0147805 1.7454324 0.54787683 -0.423766
000290 df 2f 1a bf c6 d5 26 c0 0b 22 29 c0 09 73 83 40
       -0.60229295 -2.6067977 -2.6427028 4.1077924
0002a0 b1 d5 25 c0 71 85 36 be 61 8f 16 c0 8e f0 6a bf
       -2.5911677 -0.17824341 -2.3525012 -0.9177331
0002b0 5c b6 c8 be 1d bd 81 c0 31 f6 b7 bf 9e 0d d8 3f
       -0.3920163 -4.054335 -1.4372007 1.6879156
0002c0 d6 a7 d9 be b6 11 5f bf 7d 1d dc be 2f 67 1c 3f
       -0.4251086 -0.871364 -0.42991248 0.61094946
0002d0 29 8e e6 3f ad 66 18 be 25 bd 05 40 df bb d1 3d
       1.8012134 -0.14882918 2.0896695 0.10240912
0002e0 37 a8 16 3d c1 24 1a bf 7c 7d 25 bd f0 96 8a 3e
       0.036781516 -0.6021233 -0.040402874 0.2706828
0002f0 a3 8c ce be 94 9c 3a be 8b f7 35 bf a1 d1 02 3f
       -0.40341672 -0.18223792 -0.71080846 0.5110112
000300 6d af 85 be c4 92 27 bf af fe 77 be c0 e9 05 bd
       -0.26110402 -0.6545832 -0.24218248 -0.032693624
000310 f8 f5 b1 be 39 40 b3 3e 3c b1 99 be 29 94 0a bf
       -0.34757972 0.35009935 -0.30018032 -0.54132324
000320 c9 c6 bc be 74 e7 d1 3e e1 8e ef 3e 9d fc 18 be
       -0.3687041 0.40996897 0.46788695 -0.14940114
000330 d6 b5 0e be ba dd c5 be 43 d6 82 3e b5 f1 a3 3c
       -0.13936552 -0.38645726 0.25554094 0.020012716
000340 c6 99 e0 3e 19 a5 ae 3d d8 47 8b bf 76 1d f7 3e
       0.4386732 0.08527584 -1.08813 0.48264664
000350 68 cc 22 bf f7 5d 64 bf 90 b1 1d 3e e9 b6 e3 be
       -0.6359315 -0.8920588 0.15399766 -0.44475487
000360 9b a6 35 3d 67 29 4f be c9 5a 91 3e c8 b6 15 bf
       0.04434834 -0.20230637 0.28389576 -0.5848203
000370 d3 20 e5 be 5b bf ed 3e b4 12 e3 3e 27 13 22 3f
       -0.44751605 0.46435055 0.44350207 0.63310474
000380 b8 aa bc 3d 0d 15 a7 be 8a 2c f3 3d ae ef 45 bf
       0.092122495 -0.32633248 0.118737295 -0.7731885
000390 9d c7 3f bc d6 68 87 3e a7 e9 29 3e dc e8 a3 be
       -0.011705306 0.2644717 0.16593038 -0.32013595
0003a0 ef 80 6c 3d 62 11 82 be e7 10 87 3e 14 74 12 3e
       0.05774015 -0.25403887 0.26380083 0.14302093
0003b0 87 66 89 bd 48 89 85 be 36 92 aa bd c0 e9 7e be
       -0.06709009 -0.260813 -0.08328669 -0.24893856
0003c0 9f 56 a6 be f3 23 e0 3f db cf 39 3f 73 d2 19 3e
       -0.32487962 1.7510971 0.7258279 0.15021686
0003d0 df 89 1f 3f c4 ee 79 bf a0 57 84 be 7d c4 6f 3d
       0.6231975 -0.9762995 -0.25848103 0.058536995
0003e0 7e 61 28 3f 54 4c d8 be 1f 21 df bf b8 aa 05 c0
       0.6577376 -0.42245734 -1.7431983 -2.0885448
0003f0 ae 4f e6 3f bc cb 41 3f 4c 39 ad be 3c 66 a6 bf
       1.7993066 0.757015 -0.33832777 -1.299995
